AA203_HWs/hw4/qlearning_agent_policy_20250527_193054.pth (torch, 6473 bytes, 6 tensors)

0.weight f4 [24, 4]
0.35552162 0.102944985 0.42591473 0.4160029 0.54793113 0.055117074 -0.15352856 0.4214694
0.07094631 -0.2643835 -1.8773808 -1.4172834 0.5098951 0.01510513 -0.2144027 -0.19851792
0.50811094 -0.26783907 -0.5108218 0.024446856 0.65586585 -0.10629735 -0.25504112 -0.3632775
0.17871365 0.16720317 -0.46202895 0.019833574 0.94247895 -0.28370878 -0.26845747 0.04092697
0.23942244 0.85530657 2.497217 1.0877218 0.33892265 -0.33667096 -0.11358312 -0.0969746
0.11393338 0.031711563 0.07535073 0.08018776 -0.84122574 -0.5521732 -2.392645 -1.2803867
0.43240732 0.2716154 -0.29538012 0.09157826 0.7956646 0.018538665 -0.26156715 -0.35657308
0.73229617 0.09388094 -0.5566933 0.3230366 0.7744659 0.037607256 -0.11579339 0.4400735
0.83035356 -0.080564626 -0.35516185 -0.14692992 0.7914247 0.1310666 -0.59629124 -0.15946929
0.76142627 -0.28168812 -0.81480145 0.2067294 0.89462143 -0.23294705 -0.56984854 -0.13571134
0.8552788 -0.07293387 -0.7972352 0.26619926 -0.006451124 -0.18925834 -0.17434555 -0.21288098
0.90613145 -0.0067366245 0.49579304 0.44002327 0.91554326 0.13475032 -0.25188586 0.2307556
00000000: ee06 b63e d2d4 d23d 7f11 da3e 55fe d43e
00000010: 3745 0c3f 71c2 613d 9736 1dbe d6ca d73e
00000020: 4d4c 913d 465d 87be 044e f0bf 8b69 b5bf
00000030: 7c88 023f 827b 773c 628c 5bbe 4848 4bbe
00000040: 8f13 023f 3422 89be 38c5 02bf c644 c83c
00000050: d3e6 273f 6db2 d9bd c094 82be 82ff b9be
00000060: b600 373e 4f37 2b3e 0f8f ecbe 057a a23c
00000070: 4d46 713f 4742 91be 4273 89be 0aa3 273d
00000080: 282b 753e 5ff5 5a3f 67d2 1f40 783a 8b3f
00000090: 4587 ad3e 2360 acbe 449e e8bd 9e9a c6bd
000000a0: e755 e93d fce3 013d 7c51 9a3d 7b39 a43d
000000b0: 925a 57bf 395b 0dbf 1821 19c0 b6e3 a3bf
000000c0: 7e64 dd3e 2c11 8b3e 103c 97be 628d bb3d
000000d0: adb0 4b3f 66de 973c 21ec 85be bf90 b6be
000000e0: c377 3b3f a644 c03d 7483 0ebf 0e65 a53e
000000f0: 6643 463f 110a 1a3d 1625 edbd 5051 e13e
00000100: 0d92 543f 11ff a4bd c6d7 b5be cc74 16be
00000110: cf9a 4a3f 5336 063e 8ba6 18bf eb4b 23be
00000120: d5ec 423f 6d39 90be d496 50bf dfb0 533e
00000130: e905 653f ac89 6ebe 98e1 11bf eaf7 0abe
00000140: 8df3 5a3f 5a5e 95bd 9b17 4cbf 454b 883e
00000150: f363 d3bb f0cc 41be a487 32be 79fd 59be
00000160: 3bf8 673f e7be dcbb 96d8 fd3e bb4a e13e
00000170: 0b61 6a3f fdfb 093e 2ff7 80be 324b 6c3e

0.bias f4 [24]
1.1262475 1.4319922 0.00047723347 1.4120609 1.2463086 1.5554435 1.6302598 1.4530171
-0.5062661 1.2114879 -0.35559252 -0.28161067 1.4340358 1.7773901 1.2733332 1.1071701
1.3779573 1.5923139 1.3097507 1.4881554 1.4279839 1.2462877 1.27126 1.7114627
00000000: e128 903f 854b b73f 3135 fa39 69be b43f
00000010: 0a87 9f3f c618 c73f 5aac d03f 77fc b93f
00000020: a89a 01bf 0912 9b3f 3910 b6be 462f 90be
00000030: 7c8e b73f 8581 e33f 95fc a23f c0b7 8d3f
00000040: e860 b03f f1d0 cb3f e9a5 a73f e07b be3f
00000050: 2dc8 b63f 5b86 9f3f a6b8 a23f 3611 db3f

2.weight f4 [24, 24]
0.1599279 -0.17667565 -0.03431969 -0.08217279 0.10973259 -0.17727207 -0.15618639 -0.015287974
-0.15217921 0.05501355 0.15891592 -0.04225756 -0.14784855 -0.07360636 -0.005506234 -0.14327264
0.087457806 -0.113375075 -0.18406804 -0.13553424 -0.09893582 -0.09675073 0.08375022 -0.002610799
-0.5420272 -1.143182 0.7671874 0.70163196 -0.45347998 0.6467319 0.23125756 -0.2953745
0.25464398 -0.15829448 0.12850276 1.1944041 -0.1431701 0.46308544 -0.5853769 -0.14217594
0.25443336 0.4065681 -0.29889607 -0.048855208 -0.37766153 0.7367554 -0.6403388 -0.4334932
-0.23105563 -0.13324986 0.019376844 0.05665971 -0.23137909 -0.15300152 -0.008716016 0.014607066
0.088627666 0.10780831 -0.084193304 0.06695901 0.07811175 -0.057829708 -0.19465232 -0.097266465
0.13620508 -0.24244802 -0.05967927 -0.22737294 0.15256187 -0.12747768 -0.16644512 -0.029388895
-0.06252147 -0.010354623 -0.15474737 0.015812298 0.06968117 -0.105834216 -0.10357913 -0.18324153
-0.18878789 0.1571035 0.11520258 -0.14876145 0.11784293 0.10590919 0.052599806 0.014812407
-0.02177523 -0.10180217 -0.15517302 -0.15557656 -0.11339341 0.0067077973 -0.18941104 -0.2132586
0.7097571 0.8903405 -0.7796804 1.1633856 0.81923074 1.2150474 1.239742 1.0601618
-1.4534764 0.83684206 -0.09052439 -1.5348594 1.216096 1.2297144 1.0899895 0.6702393
1.3984522 1.4912927 1.1278508 1.1574998 0.9196675 0.96030426 0.8375616 1.311912
0.6678638 0.8203861 -0.7234291 0.9893668 0.8817358 1.3892511 1.2244033 1.0932138
-1.5365628 0.93216306 0.07278763 -1.3139875 1.280427 1.3685275 1.0222057 0.8641762
1.4352719 1.2130476 0.7691707 1.2615533 1.0175843 0.9541102 0.88139355 1.2616397
-0.4719348 -0.6502526 1.620865 0.48599237 -0.17218481 0.7651265 0.163369 0.0939181
1.1559696 -0.2794752 -0.03923883 1.7929273 0.22567344 0.6127868 -0.16652922 -0.22336264
0.6355985 0.49612364 -0.053971607 0.59906065 0.37135044 0.52939224 -0.13264333 0.04546706
0.5849265 0.842939 -0.73438656 1.0126399 0.8720312 1.1470659 1.2272582 1.0753317
-1.2899009 1.0998478 0.1313036 -1.6450671 1.0699862 1.3355488 0.8464288 0.6575272
1.1819082 1.4323548 0.8435674 1.2874271 0.95471334 0.93773663 0.6274457 1.3699561
-0.594492 -0.5811685 1.6297145 0.5631224 0.34484082 0.7010035 0.44683462 0.12643471
0.28185976 0.34281853 -0.10571234 1.619454 0.3079232 0.3621601 -0.4076762 -0.6576398
0.46101224 0.65957767 0.08410308 0.5179686 0.23034726 0.45584825 -0.7018163 0.10864557
0.7943946 0.84272534 -0.6681266 1.2239727 1.0919998 1.0919664 1.1894823 1.1048689
-1.2507925 0.8501706 -0.0546895 -1.4347018 1.0109714 1.0903369 0.80726564 0.9523988
1.2878429 1.4017613 1.0483223 1.3190869 0.96999276 0.75454247 0.8302796 1.3863199
0.032649085 0.03577776 -0.049201213 -0.0019181828 -0.20411798 -0.077518545 -0.017908696 0.0729243
-0.12602144 -0.04841143 -0.05518747 -0.1360266 0.1350234 -0.20796907 -0.121167935 0.025843764
00000000: 24c4 233e 76ea 34be ce92 0cbd 354a a8bd
00000010: 7bbb e03d cf86 35be 53ef 1fbe 697a 7abc
00000020: ded4 1bbe e355 613d dbba 223e 4316 2dbd
00000030: 9c65 17be eebe 96bd a36d b4bb 10b6 12be
00000040: 141d b33d 3131 e8bd 557c 3cbe 7dc9 0abe
00000050: dd9e cabd 3f25 c6bd 3c85 ab3d f019 2bbb
00000060: 4bc2 0abf ca53 92bf 6566 443f 279e 333f
00000070: 872e e8be 3990 253f c8ce 6c3e 543b 97be
00000080: b260 823e f317 22be 3a96 033e 3ce2 983f
00000090: 2f9b 12be 8919 ed3e 43db 15bf 9296 11be
000000a0: 1745 823e b229 d03e e808 99be 661c 48bd
000000b0: da5c c1be 009c 3c3f 3eed 23bf d2f2 ddbe
000000c0: d999 6cbe a772 08be 30bc 9e3c 0314 683d
000000d0: a4ee 6cbe 6eac 1cbe 9fcd 0ebc 7a52 6f3c
000000e0: 6c82 b53d 9aca dc3d 8a6d acbd ce21 893d
000000f0: 0ef9 9f3d d8de 6cbd f052 47be a433 c7bd
00000100: 5879 0b3e 4b44 78be 4072 74bd 74d4 68be
00000110: 2e39 1c3e 8289 02be 9770 2abe fbc0 f0bc
00000120: 420b 80bd 70a6 29bc 1876 1ebe cb88 813c
00000130: 00b5 8e3d 9cbf d8bd 4b21 d4bd aba3 3bbe
00000140: 9d51 41be bddf 203e 55ef eb3d ec54 18be
00000150: a257 f13d ebe6 d83d e572 573d bdaf 723c
00000160: f861 b2bc a87d d0bd ade5 1ebe 764f 1fbe
00000170: ce3a e8bd 15cd db3b f8f4 41be 7660 5abe
00000180: a4b2 353f 5bed 633f 2299 47bf d2e9 943f
00000190: 1bb9 513f ac86 9b3f deaf 9e3f 62b3 873f
000001a0: 840b babf 483b 563f da64 b9bd 4676 c4bf
000001b0: 09a9 9b3f 4867 9d3f c784 8b3f ce94 2b3f
000001c0: 7b00 b33f aee2 be3f 6a5d 903f f428 943f
000001d0: 546f 6b3f 80d6 753f 706a 563f bbec a73f
000001e0: 1ff9 2a3f d304 523f a632 39bf 2547 7d3f
000001f0: 70b9 613f fbd2 b13f 3fb9 9c3f 6eee 8b3f
00000200: 17ae c4bf 3da2 6e3f ae11 953d be30 a8bf
00000210: 08e5 a33f e92b af3f a3d7 823f a73a 5d3f
00000220: fdb6 b73f 2545 9b3f 5fe8 443f 947a a13f
00000230: 3440 823f 9140 743f 02a3 613f 697d a13f
00000240: 70a1 f1be f476 26bf 8178 cf3f fed3 f83e
00000250: 3751 30be 55df 433f 344a 273e 2258 c03d
00000260: d0f6 933f 6017 8fbe e5b8 20bd a47e e53f
00000270: f016 673e 99df 1c3f a386 2abe 2db9 64be
00000280: 95b6 223f eb03 fe3e 5511 5dbd 0a5c 193f
00000290: a521 be3e 4086 073f a7d3 07be ab3b 3a3d
000002a0: bebd 153f daca 573f c200 3cbf 2f9e 813f
000002b0: 703d 5f3f 0ed3 923f cc16 9d3f 78a4 893f
000002c0: 791b a5bf d0c7 8c3f 7374 063e 8f91 d2bf
000002d0: 4ff5 883f 43f3 aa3f 8faf 583f b453 283f
000002e0: c548 973f 6757 b73f 08f4 573f 69ca a43f
000002f0: 1868 743f 820f 703f 48a0 203f b95a af3f
00000300: a130 18bf 75c7 14bf 7c9a d03f ca28 103f
00000310: fa8e b03e f774 333f 82c7 e43e 1a78 013e
00000320: ec4f 903e e985 af3e b67f d8bd 454a cf3f
00000330: 1ca8 9d3e 0c6d b93e efba d0be 155b 28bf
00000340: cc09 ec3e 15da 283f 3c3e ac3d 9799 043f
00000350: 27e0 6b3e f164 e93e 3caa 33bf 9281 de3d
00000360: 725d 4b3f d9bc 573f 580a 2bbf 23ab 9c3f
00000370: a6c6 8b3f 8ec5 8b3f f540 983f 586c 8d3f
00000380: f819 a0bf c8a4 593f 1902 60bd 4fa4 b7bf
00000390: 8367 813f 2990 8b3f f6a8 4e3f 68d0 733f
000003a0: 09d8 a43f ea6c b33f 6d2f 863f d7d7 a83f
000003b0: 7251 783f b229 413f 348d 543f ee72 b13f
000003c0: 0cbb 053d b38b 123d 3687 49bd 896b fbba
000003d0: 4e04 51be 0bc2 9ebd 42b5 92bc 5659 953d
000003e0: c40b 01be 104b 46bd 420c 62bd 8f4a 0bbe
000003f0: 9343 0a3e d8f5 54be e526 f8bd 4db6 d33c

2.bias f4 [24]
0.08609193 0.2880928 -0.09563488 0.035922684 1.2808982 1.1074816 0.38123333 1.2599292
0.21411468 1.039569 0.088367015 1.202376 0.8956351 1.2410411 1.0007607 -0.15029691
0.7196626 -0.08093951 0.05804011 0.004530011 1.2287754 1.323154 1.1170751 1.2370247
00000000: f750 b03d e680 933e 38dc c3bd aa23 133d
00000010: 79f4 a33f f5c1 8d3f 0431 c33e 5c45 a13f
00000020: e140 5b3e 9910 853f c4f9 b43d 75e7 993f
00000030: 5848 653f 6fda 9e3f ed18 803f 6fe7 19be
00000040: cf3b 383f 9dc3 a5bd 77bb 6d3d 7d70 943b
00000050: 8348 9d3f 1c5d a93f 51fc 8e3f d356 9e3f

4.weight f4 [2, 24]
-0.12651491 -0.63459754 0.0858986 0.031899627 1.2860101 1.3025249 -0.64025855 1.3282691
-0.28681204 1.301947 -0.09770456 1.3782364 1.4610585 1.2137265 1.344579 0.014025233
0.048637386 0.04305594 -0.0879351 0.07193395 1.3335694 1.1887544 1.3624508 1.2138766
-0.02981735 -0.8216853 -0.17527926 -0.07902774 1.1228763 1.1729244 -1.3358687 1.3690388
-1.3164426 1.2630852 0.13971867 1.4117968 1.3641934 1.1937252 1.2914047 -0.14738059
1.2445056 -0.1213277 0.005009023 -0.12985961 1.0831076 1.341781 1.0895665 1.3892823
00000000: 208d 01be fc74 22bf 9beb af3d 2fa9 023d
00000010: fb9b a43f 23b9 a63f fce7 23bf b904 aa3f
00000020: 07d9 92be 33a6 a63f 5419 c8bd 0d6a b03f
00000030: f703 bb3f 645b 9b3f 2a1b ac3f 17ca 653c
00000040: ff37 473d 6d5b 303d 5117 b4bd 1b52 933d
00000050: 67b2 aa3f 1b29 983f ca64 ae3f 4f60 9b3f
00000060: 8443 f4bc f859 52bf 687c 33be 4cd9 a1bd
00000070: 69ba 8f3f 6322 963f bffd aabf aa3c af3f
00000080: 3181 a8bf c7ac a13f 6912 0f3e c2b5 b43f
00000090: e49d ae3f fdcb 983f c04c a53f f0ea 16be
000000a0: f64b 9f3f a87a f8bd bb22 a43b ebf9 04be
000000b0: 45a3 8a3f 7bbf ab3f ea76 8b3f 01d4 b13f

4.bias f4 [2]
0.75212365 1.0312214
00000000: 2d8b 403f 10ff 833f
