AA203_HWs/hw4/qlearning_agent_policy_20250527_202426.pth (torch, 6473 bytes, 6 tensors)

0.weight f4 [24, 4]
0.43217397 -0.24661148 0.2618491 0.11792781 0.35574466 -0.053406794 -0.020898804 -0.10183099
0.45332402 -0.36372888 -0.70298827 -0.011636881 0.19080378 -0.2176869 -0.05960558 -0.19049169
0.17390072 0.2596648 -0.2060624 -0.004306429 0.02368322 0.28896907 -0.45696065 0.22859646
-0.28564557 0.27343303 2.8752582 1.3038064 1.0083251 0.76649344 2.653103 1.2223014
-0.46737567 0.12481992 1.9119874 0.95905215 0.24985859 -0.20219916 -0.23926488 0.0879144
0.021584837 -0.37663963 -0.38021785 -0.37055007 -0.36863962 -0.1477672 -0.43223327 0.0077782315
-0.42706016 -0.20625764 -0.18370941 -0.30695802 0.028031884 0.2160771 -0.045105394 -0.14311281
0.12028601 -0.8809336 -2.8210394 -1.0661708 0.16714188 0.1470499 0.7344696 -0.015489077
-0.558394 0.075199045 0.33683962 -0.12433509 2.4244332 1.2252315 -1.4917039 -1.116749
-0.82364464 -0.72399837 -2.0579011 -1.1518202 0.26170692 -0.43508396 -0.6144453 -0.32241645
0.2232199 -0.5399779 0.29043165 -0.14617439 -0.36203766 -0.083060555 -0.53837436 0.1940444
-0.08523478 -0.10975994 0.36735085 -0.33872068 -0.6591338 -0.7018518 -2.668652 -1.3603526
00000000: e845 dd3e b887 7cbe 1611 863e 2384 f13d
00000010: 2a24 b63e 15c1 5abd f833 abbc c48c d0bd
00000020: 161a e83e ac3a babe 0af7 33bf 9ea8 3ebc
00000030: 1162 433e 51e9 5ebe fb24 74bd 4110 43be
00000040: 0813 323e c9f2 843e 0602 53be f21c 8dbb
00000050: 5003 c23c c1f3 933e bff6 e9be 3115 6a3e
00000060: 2340 92be 6aff 8b3e 3b04 3840 21e3 a63f
00000070: cc10 813f ea38 443f 71cc 2940 5f74 9c3f
00000080: dd4b efbe 96a1 ff3d 01bc f43f 7184 753f
00000090: eeda 7f3e 4c0d 4fbe da01 75be 770c b43d
000000a0: afd2 b03c e9d6 c0be eaab c2be bdb8 bdbe
000000b0: 55be bcbe 4950 17be ae4d ddbe 89e0 fe3b
000000c0: a1a7 dabe 3435 53be 521e 3cbe 9a29 9dbe
000000d0: 1fa3 e53c 5143 5d3e 6fc0 38bd 2a8c 12be
000000e0: 8358 f63d dd84 61bf e98b 34c0 4978 88bf
000000f0: 3e27 2b3e 4094 163e 3306 3c3f e6c5 7dbc
00000100: e9f2 0ebf f501 9a3d 3e76 ac3e 65a3 febd
00000110: ea29 1b40 63d4 9c3f 27f0 bebf a2f1 8ebf
00000120: 60da 52bf f557 39bf a7b4 03c0 d86e 93bf
00000130: 73fe 853e 53c3 debe 4a4c 1dbf c513 a5be
00000140: c293 643e fe3b 0abf 75b3 943e bdae 15be
00000150: 005d b9be a71b aabd e7d2 09bf 93b3 463e
00000160: 938f aebd d2c9 e0bd 6915 bc3e cc6c adbe
00000170: febc 28bf 8fac 33bf 32cb 2ac0 0920 aebf

0.bias f4 [24]
1.2303222 1.1102394 1.1463417 -0.2631571 1.0498648 0.7386194 0.5462806 0.8928207
0.5350232 0.9939245 1.148798 0.81705993 0.96733564 1.230383 0.28427592 0.92847985
0.6972599 -0.06265561 -0.08559968 0.87232906 1.2292758 1.0809692 0.94732237 0.3351556
00000000: 337b 9d3f 531c 8e3f 53bb 923f 87bc 86be
00000010: f861 863f 2916 3d3f 0cd9 0b3f e68f 643f
00000020: 48f7 083f d671 7e3f d00b 933f d72a 513f
00000030: 4fa3 773f 317d 9d3f 9d8c 913e dbb0 6d3f
00000040: a07f 323f 9651 80bd e34e afbd f550 5f3f
00000050: e958 9d3f 335d 8a3f b883 723f 8499 ab3e

2.weight f4 [24, 24]
0.78009254 1.1234516 0.94770813 0.09009517 0.8682655 0.769481 -1.98278 -2.422618
-1.1177988 0.79996043 0.97878724 0.629668 0.86751586 0.9949273 -1.5817609 0.44353878
0.7004088 -0.9460801 -1.4736439 1.0407747 0.95806545 0.5979624 0.7743544 -0.56818837
0.9252264 1.0220878 0.80080545 -0.07607437 1.0418133 0.7942821 -1.8952094 -1.9739504
-1.1159215 0.88328254 0.9422555 0.5910828 0.6353212 0.7206429 -1.7286301 0.4619806
0.7663662 -0.79840297 -1.5878857 1.1311438 0.8689669 0.539566 0.8083437 -0.37641978
0.68205696 0.7684237 0.9675113 -0.13814174 0.998823 0.8809795 -1.896961 -2.0878837
-1.1602972 0.88153654 0.8053121 0.70861155 0.7501438 0.7488372 -1.6008762 0.6460628
0.5748646 -0.857066 -1.5306326 1.0065285 0.844424 0.80791515 0.8815247 -0.6184813
0.030160148 0.09108285 0.09553945 0.02741434 -0.19593169 0.036620177 0.089016646 -0.050030734
-0.0358269 0.108640425 -0.114102826 -0.18597506 -0.02817491 -0.18477185 0.07880422 -0.14392108
0.08158315 -0.0072133453 0.10642871 -0.031826694 -0.09017436 -0.17136352 -0.16461703 -0.07765128
0.8586216 1.2140075 0.995444 0.06759566 1.2993765 0.94826585 -1.2219638 -0.23594208
-0.5896772 0.9572706 0.929379 0.3893457 0.7785473 1.072234 -1.4697436 0.77008957
0.78276753 -0.47786584 -1.4473219 1.0940784 1.0151552 0.5857857 0.864884 -0.5969016
0.92715085 0.91501486 0.83006704 0.13706502 0.9640427 0.69273454 -1.9796575 -2.4432228
-1.3942498 0.7324185 0.6410161 0.45939353 0.62629765 0.76831186 -1.8516401 0.6203998
0.8152554 -0.5445984 -1.6830121 0.85588676 0.70799506 0.78309363 0.5976969 -0.6175888
0.8484268 1.1710718 0.98684007 -0.14884965 1.0059922 0.97497123 -1.2935919 -1.0807338
-0.7768627 0.8608758 0.9647635 0.5471053 0.7350039 0.8598786 -1.7678646 0.7978036
0.51650566 -0.562626 -1.406701 1.197853 1.0512764 0.68012655 0.87787265 -0.6608958
-0.190127 -0.017812004 -0.10129466 -0.12053832 0.0075306417 0.062500104 0.031517155 -0.03798441
-0.0103382245 -0.17189762 -0.013135725 -0.17160906 -0.08429081 0.09545078 -0.15846112 -0.10655017
-0.09466662 -0.12162196 -0.015410695 0.044368464 0.11303128 -0.1034238 -0.21688716 -0.13216583
-0.35239923 0.034656193 0.17437698 0.15070097 0.18508716 -0.27353856 0.121883586 -1.3090162
0.2227025 -0.28661764 0.26001003 -0.16922325 0.51132214 0.27512604 1.0082382 -0.8388472
-0.06673223 0.5308778 0.7288196 0.4092803 -0.053236414 -0.36332938 0.117870755 0.83614296
0.6284014 0.7648304 0.8258362 -0.06161152 0.68077123 0.6150935 -1.5337619 -1.704214
-0.7503659 0.6048943 0.739593 0.64330983 0.6021176 0.6367787 -1.7026331 0.5818504
0.85953194 -0.59015095 -1.8733296 0.8479856 0.8480502 0.44121286 0.6780714 -0.54409176
0.69382864 0.8110605 1.0747192 0.007827879 1.0314741 0.7417637 -1.9326876 -2.2489016
-1.2858912 0.8321676 0.633388 0.4816845 0.81078297 0.93050295 -1.5783769 0.6867183
00000000: 25b4 473f 43cd 8f3f 009d 723f d183 b83d
00000010: a646 5e3f b5fc 443f bccb fdbf 2c0c 1bc0
00000020: 0814 8fbf 35ca 4c3f cd91 7a3f ec31 213f
00000030: 8515 5e3f 8eb3 7e3f 2477 cabf 8417 e33e
00000040: fe4d 333f 4e32 72bf 5da0 bcbf 1b38 853f
00000050: c743 753f 1014 193f 173c 463f cb74 11bf
00000060: a3db 6c3f c6d3 823f 9601 4d3f e1cc 9bbd
00000070: 235a 853f 1256 4b3f 3996 f2bf 68aa fcbf
00000080: 84d6 8ebf ce1e 623f a837 713f 3451 173f
00000090: 69a4 223f 0e7c 383f c043 ddbf b988 ec3e
000000a0: 9330 443f 2364 4cbf d73f cbbf 52c9 903f
000000b0: 9d74 5e3f ff20 0a3f 9def 4e3f 18ba c0be
000000c0: 499b 2e3f 6ab7 443f d2ae 773f 0775 0dbe
000000d0: ddb2 7f3f df87 613f 9ecf f2bf e39f 05c0
000000e0: 9e84 94bf 61ac 613f ef28 4e3f 9167 353f
000000f0: 6d09 403f cbb3 3f3f 83e9 ccbf 5f64 253f
00000100: 542a 133f ad68 5bbf c5eb c3bf edd5 803f
00000110: 2c2c 583f 87d3 4e3f 9aab 613f ca54 1ebf
00000120: 6a12 f73c a589 ba3d 30aa c33d 0a94 e03c
00000130: 51a2 48be 0aff 153d 5c4e b63d 07ed 4cbd
00000140: 3abf 12bd df7e de3d beae e9bd 3f70 3ebe
00000150: 12cf e6bc d534 3dbe 1b64 a13d 0c60 13be
00000160: 1115 a73d ed5d ecbb 4cf7 d93d b55c 02bd
00000170: 56ad b8bd eb79 2fbe 5e91 28be a207 9fbd
00000180: a0ce 5b3f 9964 9b3f 6bd5 7e3f 986f 8a3d
00000190: f851 a63f 8dc1 723f 4f69 9cbf cd9a 71be
000001a0: 16f5 16bf b00f 753f c8eb 6d3f 5258 c73e
000001b0: e04e 473f f73e 893f 8f20 bcbf 9724 453f
000001c0: 7463 483f d5aa f4be d841 b9bf c30a 8c3f
000001d0: 9bf0 813f 0df6 153f 0a69 5d3f 8bce 18bf
000001e0: c259 6d3f 6a3e 6a3f 467f 543f c65a 0c3e
000001f0: 81cb 763f 0d57 313f 6b65 fdbf c35d 1cc0
00000200: c776 b2bf c77f 3b3f a219 243f a135 eb3e
00000210: 0b55 203f 16b0 443f 8b02 edbf 85d2 1e3f
00000220: 94b4 503f cd6a 0bbf f16c d7bf 651b 5b3f
00000230: 2a3f 353f d378 483f aa02 193f 4d1a 1ebf
00000240: 8032 593f aee5 953f 8da1 7c3f 0b6c 18be
00000250: 5ac4 803f b797 793f 6b94 a5bf 7c55 8abf
00000260: 79e0 46bf 5b62 5c3f befa 763f 180f 0c3f
00000270: 3729 3c3f 0121 5c3f 6349 e2bf db3c 4c3f
00000280: b739 043f 4208 10bf c70e b4bf 3f53 993f
00000290: 3a90 863f c61c 2e3f 43bc 603f 7830 29bf
000002a0: a7b0 42be 7bea 91bc 9373 cfbd cbdc f6bd
000002b0: 9ac3 f63b 0e00 803d 2218 013d 8a95 1bbd
000002c0: a861 29bc ee05 30be 3937 57bc 49ba 2fbe
000002d0: a9a0 acbd b37b c33d a243 22be fa36 dabd
000002e0: 93e0 c1bd ef14 f9bd 247d 7cbc b5bb 353d
000002f0: f27c e73d dbcf d3bd ab17 5ebe 7b56 07be
00000300: ac6d b4be a7f3 0d3d e18f 323e 5b51 1a3e
00000310: 7d87 3d3e 3f0d 8cbe 1a9e f93d d88d a7bf
00000320: 200c 643e 8cbf 92be 0920 853e dc48 2dbe
00000330: 02e6 023f 52dd 8c3e f30d 813f b1be 56bf
00000340: e8aa 88bd 9ce7 073f ec93 3a3f 308d d13e
00000350: 6d0e 5abd 4f06 babe 3966 f13d 770d 563f
00000360: eade 203f edcb 433f 006a 533f 5c5c 7cbd
00000370: 0647 2e3f c576 1d3f 4f52 c4bf af23 dabf
00000380: fb17 40bf 5ada 1a3f f855 3d3f f4af 243f
00000390: 6124 1a3f ee03 233f e2ef d9bf 26f4 143f
000003a0: 490a 5c3f 2214 17bf 44c9 efbf 9615 593f
000003b0: d119 593f a7e6 e13e 1696 2d3f 9949 0bbf
000003c0: c19e 313f a9a1 4f3f 6690 893f 8140 003c
000003d0: 5807 843f 3ae4 3d3f 4f62 f7bf 01ee 0fc0
000003e0: 1598 a4bf f008 553f b725 223f 5a9f f63e
000003f0: 798f 4f3f 7135 6e3f 4108 cabf c5cc 2f3f

2.bias f4 [24]
0.58505076 0.7260455 0.6503958 -0.08781947 1.0838033 0.7269397 0.93606716 0.009315478
0.016719477 0.7176622 0.5844871 0.25151682 0.682987 0.7184757 0.26642504 0.6813034
0.5344879 0.73190945 -0.05766192 0.6320938 0.15315431 0.1569081 0.73084176 0.911489
00000000: e3c5 153f 1ede 393f 5780 263f b2da b3bd
00000010: 11ba 8a3f b818 3a3f 19a2 6f3f f29f 183c
00000020: 49f7 883c b6b8 373f f2a0 153f d0c6 803e
00000030: 3cd8 2e3f 06ee 373f dd68 883e e669 2e3f
00000040: 33d4 083f 6b5e 3b3f e82e 6cbd e6d0 213f
00000050: 7cd4 1c3e 84ac 203e 7218 3b3f 5857 693f

4.weight f4 [2, 24]
1.2488092 1.2307775 1.1130443 0.026298096 1.231154 1.1383493 1.2287874 0.017425476
-0.879677 0.90452087 1.1979725 -0.52320385 1.0003643 1.2982516 0.6633535 1.1664097
-1.4293013 1.2193992 -0.6391719 1.178728 -0.0112872915 -0.24093866 1.3106157 1.1902765
1.0612769 1.1475613 1.2336056 -0.13804369 0.9419573 1.3459314 1.0055816 -0.13310331
-0.94072616 1.2122712 1.1489837 0.338388 1.1584361 1.3072418 -0.3936046 1.1642673
-0.17201592 1.3199124 -2.1555042 1.3519825 1.5727086 0.8766357 1.1680051 1.1780053
00000000: fbd8 9f3f 1e8a 9d3f 3c78 8e3f 1b6f d73c
00000010: 7496 9d3f 6eb5 913f e848 9d3f dfbf 8e3c
00000020: 8332 61bf ae8e 673f 2a57 993f b0f0 05bf
00000030: f00b 803f 1c2d a63f 89d1 293f ea4c 953f
00000040: 58f3 b6bf 4615 9c3f c5a0 23bf 8fe0 963f
00000050: 55ee 38bc a0b8 76be 41c2 a73f fb5a 983f
00000060: ecd7 873f 4ae3 923f cae6 9d3f 535b 0dbe
00000070: 1d24 713f 7b47 ac3f e6b6 803f 3c4c 08be
00000080: 6ed3 70bf b42b 9b3f e611 933f 3141 ad3e
00000090: a247 943f b353 a73f 8b86 c9be b606 953f
000000a0: f124 30be e4f2 a83f c8f3 09c0 c30d ad3f
000000b0: 844e c93f 326b 603f 3181 953f e1c8 963f

4.bias f4 [2]
0.91880924 0.8425414
00000000: 1537 6b3f cbb0 573f
