AA203_HWs/hw4/qlearning_agent_policy_20250527_183807.pth (torch, 6473 bytes, 6 tensors)

0.weight f4 [24, 4]
000000 74 07 aa be 0e 07 78 bd 84 a1 2b bc 39 de b4 be
       -0.3320881 -0.060553603 -0.01047552 -0.35325792
000010 1c f9 08 bf b8 10 2c bf 1d 3a 5f bf 8c da 38 bf
       -0.5350511 -0.6721301 -0.8719805 -0.72208476
000020 00 62 b8 bf 9d a2 ac bf 5b 88 11 c0 d3 0e 9f bf
       -1.4404907 -1.3487126 -2.2739475 -1.2426399
000030 fe 90 c1 be 89 c3 01 3e 9f 34 31 3f 95 32 92 3e
       -0.37805933 0.12672247 0.6922092 0.28554216
000040 de eb 24 bf 1f a2 88 bf 40 a7 4b bf 9f 4e 53 bf
       -0.64422405 -1.0674475 -0.7955208 -0.8254184
000050 d4 aa ea be ca 9e 15 be 99 dc b3 3e 45 b7 85 be
       -0.45833457 -0.14611354 0.3512924 -0.26116386
000060 9a 2e b1 bd 44 09 84 be a6 d6 68 be fa 40 bf bd
       -0.08651467 -0.2578832 -0.22738132 -0.09338565
000070 3c 2c 1e bf 6a 40 a7 bf 3b 97 21 c0 de 51 6a bf
       -0.61786246 -1.3066533 -2.5248554 -0.9153117
000080 6c ee b0 be 1b 0d a7 bf 0a 69 b1 bf f6 3e 76 bf
       -0.345569 -1.3050874 -1.386018 -0.9618982
000090 14 15 50 3e 55 65 4e 3e a7 70 70 bf c2 4b f8 bd
       0.2032054 0.20155843 -0.93921894 -0.12123825
0000a0 77 4c 0f be 57 c2 99 bf 65 89 ec bf f2 92 31 bf
       -0.13994013 -1.2012433 -1.847943 -0.69364846
0000b0 7a 71 c9 bd cb 33 62 bf c7 61 0d c0 7c ba 29 3d
       -0.09836097 -0.8836028 -2.2090929 0.04143761
0000c0 96 3a 10 bf ac 94 82 3d 7a 12 a6 3e ae e2 e3 3d
       -0.56339395 0.06376013 0.32435971 0.1112722
0000d0 4d 53 45 3e 71 15 48 bd df 19 d9 bf 4f d6 99 be
       0.19270058 -0.048848573 -1.696102 -0.30046317
0000e0 71 18 6f bf eb fb aa 3d 2c 39 e0 3f 4f 02 18 3f
       -0.9339667 0.08348831 1.7517447 0.5937852
0000f0 0b 1d 1f bd bd 00 fb be 0f be c3 be e1 e6 01 bf
       -0.038846057 -0.49024 -0.3823094 -0.5074292
000100 83 b6 a9 bc 47 99 ea be 02 42 87 be df c1 81 be
       -0.020716911 -0.45820066 -0.26417547 -0.25343224
000110 d8 32 7d bd 4f 88 98 bf c5 f1 e0 bf 04 86 6b bf
       -0.061816067 -1.1916598 -1.7573782 -0.92001367
000120 fa aa 90 be 47 85 ba bd ec 7e 3c 3e 9e 48 e8 3d
       -0.28255445 -0.09107452 0.18407792 0.11341976
000130 5e 37 52 bf f9 f3 51 3e 00 1b bd 3e b6 53 09 3e
       -0.82115734 0.20503224 0.36934662 0.1341084
000140 42 9d c3 be 34 de 64 bd 55 18 88 bf 22 12 0b bf
       -0.38205916 -0.055875972 -1.0632426 -0.54324543
000150 ea 71 47 bf c6 e4 b8 bf 47 3f 0e c0 f9 27 8d bf
       -0.77908194 -1.4444816 -2.2226121 -1.1027824
000160 5c 73 c1 be 51 d1 85 3e eb 8f 11 40 22 f0 1f 3f
       -0.37783325 0.26136258 2.274409 0.6247579
000170 00 a4 f9 3f c7 04 4e 3f c7 8d 85 bf 9f bd f3 3d
       1.9503174 0.8047604 -1.0433892 0.11901402

0.bias f4 [24]
000000 b6 73 ad 3f 10 87 58 3f f0 8e 7e be b2 81 72 3f
       1.3550937 0.8458109 -0.24859214 0.9472915
000010 3f f0 93 3f 8e 30 b9 3f 8f 8f 96 3f e8 54 86 bd
       1.1557692 1.4467943 1.1762561 -0.06559163
000020 12 81 7b 3f af e9 2f 3f af 8e 5e 3f 5d 1b 9e 3f
       0.9824382 0.6871595 0.8693647 1.2352101
000030 cd ed 80 3f 19 08 95 3f 40 dd 76 be e7 71 ba 3f
       1.0072571 1.1643096 -0.24107838 1.456601
000040 48 ea 7e 3f 22 ea 66 3f 84 7f ab 3f 60 03 b2 3f
       0.99576235 0.9020101 1.339829 1.390728
000050 52 c3 ce 3f d7 73 c0 bd a5 40 7d 3e 3a b8 89 be
       1.6153357 -0.09397095 0.24731691 -0.26898366

2.weight f4 [24, 24]
000000 80 8e 23 3f f6 f5 48 3f a4 70 a4 bf c4 85 3e 3f
       0.6388931 0.78500307 -1.2846875 0.7442286
000010 05 a1 76 3f 30 39 7e 3f 94 95 8e 3f 83 15 ec bf
       0.96339446 0.9930601 1.1139398 -1.8444065
000020 7a 88 b4 3f 9c 8b 99 3f bf be af 3f 9e 01 12 3f
       1.4104149 1.199573 1.3730086 0.5703372
000030 db ab 1b 3f 03 8c 1a 3f 46 d8 41 bf 50 41 95 3f
       0.60809106 0.6036989 -0.7572063 1.1660557
000040 6f 08 80 3f 9a 3e 9f 3f 54 e1 2f 3f 47 47 26 3f
       1.0002574 1.244098 0.687032 0.6495251
000050 8d 33 3f 3f dc fa be bf b8 2f 7d bf 01 42 12 bf
       0.74688035 -1.4920306 -0.9890094 -0.57131964
000060 52 d6 0d be 2d 82 11 be b9 4a f8 bc d8 82 51 3d
       -0.13851288 -0.14209814 -0.030309068 0.051150173
000070 d3 73 ae 3d 60 f8 1c be 18 cc 1e be b6 32 b5 bd
       0.085181855 -0.15329123 -0.15507543 -0.08847563
000080 df 3d 09 be 7b a6 c5 3d a3 f8 cf 3d c8 69 bf bd
       -0.13402508 0.09650894 0.101548456 -0.09346348
000090 80 2b ed bd 5e 3a ad 3c 4f b3 51 3d fd b6 ea 3b
       -0.115805626 0.021145996 0.051196393 0.007162927
0000a0 1f 4a 26 3d a0 51 d1 3d 92 a6 e8 bc 0c d3 cd 3d
       0.04059803 0.10220647 -0.02839974 0.100500196
0000b0 d0 dd 39 3c 01 85 e0 3d 4d 92 b0 3c 34 8e ea bd
       0.011344388 0.109628685 0.021554137 -0.11452904
0000c0 6c 4c 3f 3f 3f 96 4a 3f 15 26 9d bf ef ed 62 3f
       0.74725986 0.7913551 -1.2277247 0.8864431
0000d0 96 89 89 3f 0f 62 37 3f 90 59 8c 3f a2 73 d9 bf
       1.0745113 0.71634 1.0964832 -1.6988413
0000e0 e0 53 9a 3f 0d 6e 96 3f 92 fb a4 3f 0d 4e 1a 3f
       1.2056847 1.1752335 1.2889273 0.60275346
0000f0 4b b2 dd 3e 6d 26 1d 3f ec 16 56 bf 9a f9 66 3f
       0.4330009 0.6138676 -0.83628726 0.9022461
000100 4d 48 84 3f 3e 5e c8 3f 32 58 3f 3f 52 55 43 3f
       1.0334564 1.565376 0.7474395 0.76302063
000110 1d 09 72 3f 02 eb cb bf a7 40 9b bf 85 02 e4 be
       0.94545156 -1.5931094 -1.2129105 -0.44533172
000120 71 77 df 3e 4f 37 23 3f 20 43 90 3f b2 04 b4 bf
       0.43645814 0.6375627 1.1270485 -1.4063933
000130 5d bb ee 3e 46 2e 2d 3e bd 76 75 be 59 0a e4 3f
       0.46627322 0.16912183 -0.23971076 1.7815658
000140 d2 ab 00 3f a9 1a 4b bf e6 9b be 3e 4b 57 b2 3f
       0.50262177 -0.79337555 0.37228316 1.393289
000150 ba 81 b9 be 37 aa 38 3f b8 0b 4b bf f8 32 0c 3f
       -0.36231786 0.7213473 -0.79314756 0.5476527
000160 1b 3d 5f be 80 e5 c7 3e 88 42 9c bd 69 df ea bd
       -0.21800654 0.39042282 -0.07629877 -0.11468393
000170 cb 0a 4f 3f 18 a2 c4 3f 7d 1d 84 bf a0 36 78 3f
       0.80875844 1.5361967 -1.0321499 0.9695835
000180 df 28 9e bc ba 41 dd bd 7c 1a 29 bd 6b 4d f8 bd
       -0.019306598 -0.10803552 -0.041285023 -0.12124141
000190 26 d5 7b 3d 3b d7 e0 3c 31 2f 0f be 91 e5 ce bc
       0.06148257 0.02744638 -0.13982846 -0.02525595
0001a0 9d 7f 0a bd 35 52 48 ba ba 98 0a bd 90 16 2a be
       -0.033813108 -0.00076416443 -0.033837058 -0.1661017
0001b0 14 90 db bd 3e 41 56 3d a0 53 b7 bd 24 ab 3c be
       -0.1072084 0.052308314 -0.08951497 -0.1842466
0001c0 dd f0 93 3c 97 f9 11 3c 28 0a b4 3c 02 59 96 3d
       0.018059189 0.0089096045 0.0219775 0.07341196
0001d0 f6 bb e2 bd 25 40 dc 3d 22 66 51 bd 4a 32 00 bd
       -0.11071007 0.10754422 -0.051122792 -0.03129796
0001e0 c4 56 13 3f 8d b3 53 3f 6e 1c a3 bf f5 95 82 3f
       0.5755427 0.8269585 -1.2743051 1.0202013
0001f0 a0 66 85 3f ec de 59 3f 0a a8 83 3f 76 63 d9 bf
       1.0421944 0.85105777 1.0285656 -1.6983478
000200 0b a6 95 3f 67 b7 88 3f aa f1 d2 3f 3b 6c bb 3e
       1.1691297 1.068097 1.648 0.3660601
000210 e4 df 1a 3f f0 8c 07 3f 56 94 77 bf 0e 54 90 3f
       0.6049788 0.5294943 -0.9671072 1.1275651
000220 49 dc 95 3f 6b 64 b6 3f 8d 82 47 3f 30 69 5c 3f
       1.1707851 1.4249395 0.7793358 0.86098003
000230 97 76 3a 3f 60 e5 c2 bf 36 fa a2 bf 1f 25 22 bf
       0.72837204 -1.522625 -1.2732608 -0.6333789
000240 c3 ce 6f 3f bf 9a 84 3f 01 63 c7 bf fe 52 2f 3f
       0.9367487 1.0359725 -1.5577089 0.6848601
000250 ff 6c 90 3f 8f b3 2e 3f 27 ff 44 3f 8e 11 a6 bf
       1.1283263 0.68242735 0.7695183 -1.2974107
000260 68 05 bd 3f f9 8c 2d 3f cb e0 95 3f 14 0e 05 3f
       1.4767275 0.6779323 1.1709226 0.51974607
000270 75 36 a4 3e 68 80 5e 3f 12 2e 3a bf c9 cf 9f 3f
       0.32072797 0.8691468 -0.7272655 1.2485286
000280 66 01 32 3f 9a 21 cc 3f fa 3c 50 3f 45 b4 38 3f
       0.69533384 1.5947754 0.8134304 0.7215007
000290 e2 dc 9d 3f c2 11 c9 bf 49 05 71 bf 19 be 21 be
       1.2333033 -1.5708544 -0.9414869 -0.15795173
0002a0 46 d7 85 3e db 1e d6 3e b8 4f 92 3f 77 0f cd bf
       0.26140803 0.41820416 1.1430578 -1.6020344
0002b0 74 5c 0f 3f 83 68 e1 3d c3 1b 1b be 98 5d e5 3f
       0.5600045 0.11006262 -0.15147309 1.7919188
0002c0 a9 7d 1a 3f 81 55 42 bf 1e 44 e0 3e c3 57 c3 3f
       0.6034799 -0.7591172 0.4380197 1.5261158
0002d0 f6 37 9b bd 9e 2c 69 3f aa c5 f9 bf b0 8f 16 3f
       -0.07579033 0.91083705 -1.9513447 0.58813
0002e0 d6 5f 97 be 0b e2 0b 3f 2c cd 6a be 24 bc e9 be
       -0.29565305 0.5464179 -0.2292983 -0.45651352
0002f0 37 7e 0b 3f 0e e3 e8 3f 25 9f 89 bf ec 25 a6 3f
       0.54489464 1.8194292 -1.0751692 1.2980323
000300 dd 62 0c 3f 3a c2 21 3f 6b 0d a7 bf 5e a5 79 3f
       0.54838353 0.6318699 -1.305097 0.97517955
000310 a5 77 8d 3f 8e 1a 7e 3f c1 c6 93 3f eb 6c d8 bf
       1.1052138 0.9925927 1.154503 -1.6908239
000320 75 ba ab 3f 2c 37 a0 3f 7a 1c af 3f 92 e2 01 3f
       1.3416277 1.2516837 1.3680565 0.50736344
000330 06 15 18 3f af 33 7f 3e 80 dc 4e bf 4c bc 9d 3f
       0.5940708 0.2492206 -0.80805206 1.2323089
000340 fc 50 94 3f 6a 0b 8a 3f 03 49 74 3f 7f 73 75 3f
       1.1587214 1.0784733 0.9542391 0.9587936
000350 82 fb 3e 3f 56 bc c6 bf 60 02 9e bf 1c cc 71 bf
       0.7460252 -1.5526226 -1.2344475 -0.9445207
000360 5f 5d 0e 3f 5e 7f 8f 3e 91 ea a5 3f 17 33 c9 bf
       0.55611223 0.2802686 1.2962209 -1.5718716
000370 cb 00 13 3f 6c 0f e2 3c ea a5 ac be 34 c8 f4 3f
       0.57423085 0.027595244 -0.33720332 1.9123597
000380 73 c7 34 3f 32 ce 13 bf cc f5 a9 3e 4e 26 c9 3f
       0.70616835 -0.57736504 0.3319534 1.5714815
000390 44 c9 16 be c9 7a 6f 3f 63 ff da bf 31 9e 0f 3f
       -0.14725214 0.9354673 -1.7109188 0.56100756
0003a0 9d 89 d6 be fa 8b 1b 3f 54 2b 94 be 09 d3 53 be
       -0.41901866 0.6076046 -0.28939307 -0.20685972
0003b0 3d 2a 2c 3f bd 74 d8 3f fd 0f 80 bf 20 f1 9c 3f
       0.6725195 1.6910626 -1.0004879 1.2261086
0003c0 31 32 19 3f d1 d7 83 3f d7 49 ae bf 70 d1 71 3f
       0.5984221 1.0300237 -1.3616284 0.944602
0003d0 2e cb 91 3f 1c 05 42 3f e2 03 88 3f 60 e5 e8 bf
       1.139013 0.75789046 1.0626185 -1.8195
0003e0 3b 5b 9f 3f 85 6c 90 3f c3 f0 c6 3f c5 ba 08 3f
       1.2449716 1.1283118 1.5542225 0.5340999
0003f0 71 3d db 3e 17 ce dd 3e a7 95 81 bf a9 da a1 3f
       0.42820314 0.43321297 -1.0123795 1.2644855

2.bias f4 [24]
000000 30 0d 85 3f 93 5b 95 3c 12 3e 7b 3f ba f0 b9 3e
       1.039465 0.018232143 0.98141587 0.36316472
000010 8a 4c 2f 3d ae 08 69 3f be 83 75 3f db 42 d1 3e
       0.042797603 0.9102887 0.9590415 0.4087132
000020 d0 a8 71 3f e5 7d 6f 3e 7e bb 59 3f 69 d1 7b 3f
       0.9439821 0.23387869 0.85051715 0.9836641
000030 12 04 00 3f b1 a9 82 3f 6f fe bd 3e 42 1a 5f 3f
       0.5000621 1.0208036 0.3710818 0.8714944
000040 dc 74 54 3d 17 24 8d bb 4f 56 75 3f ac 31 bd 3e
       0.05186926 -0.0043072808 0.9583482 0.3695196
000050 af f1 13 3f e5 9c 1a be 9b 72 a9 3e 0a 3b 45 3f
       0.57790655 -0.15098913 0.3309525 0.7704321

4.weight f4 [2, 24]
000000 dc a0 77 3f 08 1d b2 3b b0 30 9b 3f 60 cf 6a bf
       0.96729827 0.0054355897 1.2124233 -0.9172268
000010 d9 2b c4 bd 0b 18 82 3f 95 d1 98 3f f5 e3 77 bf
       -0.09578676 1.0163587 1.1938959 -0.9683221
000020 a7 51 55 3f dd e7 b5 bf 14 97 7f 3f 74 13 8b 3f
       0.83327717 -1.4211384 0.998399 1.0865312
000030 01 f6 9f bf 69 5e 7d 3f ce ff ae bf 8b 73 68 3f
       -1.249695 0.98972183 -1.3671815 0.90801305
000040 53 c3 37 bf 28 81 aa bf a4 90 93 3f 4a f7 c1 bf
       -0.71782416 -1.3320665 1.1528516 -1.5153592
000050 7f 3f 89 bf 9e 54 10 3e ec ba c7 bf 4c ba 97 3f
       -1.0722502 0.14094779 -1.5603919 1.1853728
000060 de 55 8d 3f ff 2e ec bd 7e 2f 92 3f 3f d1 b0 bf
       1.104183 -0.11532401 1.1420743 -1.3813857
000070 9e a4 60 bc 77 50 93 3f a8 e4 3b 3f ee 7c ac bf
       -0.013711123 1.1508931 0.73395777 -1.3475626
000080 dc 23 9a 3f a7 e8 b7 bf 87 e9 95 3f 30 05 89 3f
       1.2042193 -1.4367875 1.1711892 1.0704708
000090 cb 12 c4 bf d9 df 87 3f 30 3f ea bf 23 5b 97 3f
       -1.5318235 1.0615188 -1.8300533 1.1824688
0000a0 67 84 e9 3e d6 c2 63 bf 5d 22 66 3f 86 29 68 bf
       0.45608827 -0.8896917 0.89896184 -0.9068836
0000b0 91 01 b0 bf 96 d6 4d 3e db 19 d9 bf f5 04 8b 3f
       -1.3750478 0.2010139 -1.6961015 1.0860888

4.bias f4 [2]
000000 c8 1a 5a 3f a9 d5 17 3f
       0.85197115 0.59310395
