AA203_HWs/hw4/qlearning_agent_policy_20250527_202831.pth (torch, 6473 bytes, 6 tensors)

0.weight f4 [24, 4]
00000000: de3c fc3e abbf e93e 00a3 4bbf 36f0 97be
00000010: bb21 4ebf b2cd 003f 94a1 8dbe 89d8 f03d
00000020: 016b 1abf 883a 8fbe a28d 9cbf 64d9 c1be
00000030: 1e53 2c3d 133f b33e 18a9 033f 8180 413e
00000040: bde9 b33e 1f6e ffbd a83f 52bf 3028 1ebf
00000050: 6a74 4f3d 9e7d 7fbe ecf9 2abd b65c 22bd
00000060: 16b0 27be 3335 bd3d b1c8 4e3d f111 59bd
00000070: 333e 87bd 0cd3 eb3e 5836 473e d271 073e
00000080: fc43 cc3d 752b 0cbf df5e 0cbe f435 9cbe
00000090: ed81 353f f401 453f a6c1 a9be 8de5 9c3e
000000a0: 45d2 03be 1f16 59bf b121 46be de44 03bf
000000b0: 46d3 20bf 7fe9 16bf 8e7e 94bf 01f8 33bf
000000c0: 7e77 9d3d 9514 953f e18c 803f b1ad 213e
000000d0: 0e26 603e 26b7 93bf 4be9 85bf b91f 3ebe
000000e0: 5804 323c f8ad 7b3e e1cb 9bbe 966d 71bd
000000f0: 10cf 02bf f9d6 ebbf 385f 41c0 4f33 b8bf
00000100: 7019 49bf be23 0dbd b676 1bbe 155f 5ebd
00000110: 79eb 37bf ac27 debe d8fb 55be 8ec1 d2be
00000120: cdd0 c2bc efae 62bf b74c 64bf ff43 42bf
00000130: 68c4 223f 7abd 2cbf cdf9 e1bf 5251 85bf
00000140: ab93 d2bf 52c3 7fbd 803a c73f 137f 553f
00000150: 53e2 2ebf 07f4 623d 436f 773e a2ff a53d
00000160: d930 113f cc0a 003f 1387 bd3e 5d3b 85be
00000170: 8706 aebe 4409 5e3d c405 893e 1eac 8cbe
0.49265188 0.45654044 -0.79545593 -0.29675454 -0.8052022 0.50313866 -0.27662337 0.11760051
-0.60319525 -0.27974343 -1.2230723 -0.37861168 0.042071454 0.3500906 0.5142989 0.18896677
0.35139266 -0.12472176 -0.8212838 -0.6178007 0.05064813 -0.24950263 -0.04174225 -0.039639197
-0.16375765 0.092386626 0.050484363 -0.052995626 -0.066036604 0.46059453 0.19454324 0.13227013
0.099739045 -0.5475381 -0.13708065 -0.30509913 0.70901376 0.76956105 -0.33155555 0.30643883
-0.1287318 -0.8479938 -0.1934879 -0.5127696 -0.6282238 -0.58950037 -1.1601121 -0.703003
0.07688807 1.1646906 1.0042993 0.15788914 0.21889517 -1.1540267 -1.046182 -0.18566789
0.010865293 0.24578083 -0.30428985 -0.0589424 -0.510972 -1.842498 -3.0214367 -1.4390658
-0.7855444 -0.034457915 -0.15182003 -0.054289896 -0.7184368 -0.43389642 -0.20896852 -0.41163296
-0.023781205 -0.8854818 -0.8917956 -0.75885004 0.6358094 -0.6747662 -1.7654358 -1.0415442
-1.6451315 -0.06244213 1.5564728 0.83397025 -0.68314093 0.055408504 0.24163537 0.08105399
0.5671516 0.50016475 0.37017116 -0.26021853 -0.33989355 0.054208055 0.2676221 -0.27475065

0.bias f4 [24]
00000000: f81d 323f 5e6a 2c3f e1b3 a23e 7e13 333f
00000010: 82a5 a83e 96cb 5c3f a701 743f 2eca 2c3f
00000020: 8e87 573f b533 f93d 46ee f53e f4d3 593f
00000030: 991a 283f c3cc 193f 22af 213f f082 78bd
00000040: 520f 283f 4f30 e83e b1bd 273f 1feb e23c
00000050: 7248 b0be 0450 543f 987c 2f3f 6aca 643f
0.6957698 0.67349803 0.31777862 0.6995162 0.32938772 0.8624815 0.9531502 0.67496
0.84191215 0.121680655 0.4803335 0.8508904 0.65665585 0.60078067 0.63157856 -0.060671747
0.65648377 0.45349357 0.6552382 0.027700005 -0.3443027 0.82934594 0.6854949 0.8937136

2.weight f4 [24, 24]
00000000: 5897 6c3a a820 073f c755 cf3e 7bbe 0b3f
00000010: 8706 03be 28ed 213f ca51 943e d010 133f
00000020: c445 373f f13e 2fbf 56a4 523f 3d64 823f
00000030: 5eda 233c 25b5 223f a260 ec3e 9bf5 c0bf
00000040: a1e9 1a3f 55a9 493f 7433 283f 6247 1abf
00000050: 27bf a0bf c03c 0d3f c122 253d 9a1c 053f
00000060: 3ef1 ac3b bbab 053f c803 bf3e 2eb4 c03e
00000070: 5163 b23b 11d4 083f 2ae1 1f3f eefb 1e3f
00000080: 0379 3f3f d14f 04bf bbf1 3c3f 3f9c 813f
00000090: acda 26bd 95b6 293f f6a1 ee3e 5004 b1bf
000000a0: 66c6 653f a643 343f e954 ed3e c3e5 15bf
000000b0: c6f6 6fbf 3ed6 1d3f 85d4 bfbc 4056 b43e
000000c0: 0203 a83d 164d 3c3f 1790 683e 1891 1a3f
000000d0: 478f dfbd 58aa da3e 425c 9b3e 0b83 083f
000000e0: 0608 de3e f796 41bf 7a00 513f 0ea9 673f
000000f0: cd35 68be 0d63 463f 20ff b53e be93 adbf
00000100: 055c 0d3f d912 4f3f abac 3b3f d37f 14bf
00000110: 8362 82bf 5b78 0b3f 2717 dbbc 85a6 e13e
00000120: 19ff c2bd 27b8 0a3f 9a1a 0c3f 5060 283f
00000130: 15ae 6a3e 2157 b03e bf42 ba3e d01f f93e
00000140: 9dd7 ee3e 1555 3bbf d919 453f c979 733f
00000150: 9b32 6cbe d373 093f 4cb4 c13e 4a54 9fbf
00000160: 45ee 003f 9945 803f e100 4d3f 5b4a d6be
00000170: 203e 8cbf c82b 1e3f e895 7639 5ae0 a43e
00000180: e86c 23be d071 513f 5610 953e 5a9b ab3e
00000190: 8302 003d d7a3 303f bc5e eb3e c6f5 1e3f
000001a0: 8a8c 583f d479 4abf dafd 643f c553 3c3f
000001b0: 76af 2bbe a47c 293f d6f8 b23e 5a2d cebf
000001c0: 6ef5 6d3f 0131 3e3f bc4a 3f3f f1b1 2ebf
000001d0: a241 57bf 4cb6 363f 23e8 0cbe 3b93 b33e
000001e0: 7d4e eabb 39b2 0b3e 9372 b53d 4430 53bd
000001f0: c85b 44be 1d8d 42bd 7ef6 c33d a755 5b3d
00000200: 49ff 51be 1693 ac3d c872 12bc d6a3 ee3d
00000210: 39ae 27be d8d9 43bc af00 b63c 8fd8 733d
00000220: 7b34 253e fc02 44be ee0e 07bd 8b17 8d3c
00000230: d98f 153d b34e 59be 83cd 1fbd 6352 f8bd
00000240: 01c3 26be 6271 093d 8a4e 4b3c 9798 e93d
00000250: cce7 363e 61ea 1ebe cd3d 1fbe d6d7 06be
00000260: b2da 9abc 347e 143e 3447 123e 5db0 e2bd
00000270: 473f 123e 2b10 6b3d 76a2 e0bd 110e 6abd
00000280: 9f1d 0c3d 15b3 d8bc ddce fabd a19f af3d
00000290: e68c 1abe 3817 dc3b 42d0 f9bc 7ecf b5bd
000002a0: ef77 90bd 78f1 ae3d c7b6 81bc 7df4 00be
000002b0: 96bd e8bd 843e 16bd 712a 7a3c 33c1 d1bc
000002c0: 2637 c6bd 73ca 9a3d b97d 1fbd 2f6c 19be
000002d0: ee4e af3d d6d9 06bd e356 e8bd d31b 07ba
000002e0: 896e dcbd 0a05 153e dbc0 e13c c585 9b3d
000002f0: cc7f 0c3d dcc6 25be 2bc0 36be 82eb 30bc
00000300: 4b47 d9bd 4185 413f f456 a73e 32f2 073f
00000310: 8f18 1d3e 5182 173f 6291 db3e 69d9 ef3e
00000320: 80e1 e83e 8692 2fbf e336 1e3f 9e26 793f
00000330: 81df aebc 76ff 2e3f 62b3 f13e 5ef8 b7bf
00000340: 6e56 5d3f b56b 833f 8932 173f 4113 07bf
00000350: c959 4abf b57e 383f 1d4f 96bd 3331 013f
00000360: e3d4 47be b4da 393e 9a42 4f3e 5466 47be
00000370: 59e1 c1bd 7a73 083d fd54 9c3a c591 9b3d
00000380: 342e 383e e0ce b1bf a05d 043f 6e72 883f
00000390: 6075 33be 182c 643f f8c3 6cbe e29c aabf
000003a0: 840f b53e 1985 423f 3d0e 103f 6d14 42bf
000003b0: 3248 9d3e a388 603e 3672 aebe 685b a43d
000003c0: ade1 203f 051b 89bf a152 ee3e ccba 9cbf
000003d0: b724 273f ab23 c1bd 5f05 173e dcfb 5abf
000003e0: beb5 c13e 6fe3 963f 3e0d 9e3e 8e79 0f3f
000003f0: c68f 643e dc01 3a3f 5c8a ac3e 086c 0940
0.00090252375 0.52784204 0.4049513 0.54587525 -0.12795459 0.63252497 0.2896865 0.5744753
0.7159083 -0.68455416 0.82282007 1.018684 0.010000793 0.63557655 0.46167475 -1.5074953
0.6051274 0.78774005 0.6570351 -0.6026517 -1.2558335 0.5517082 0.040316347 0.5199677
0.0052777817 0.52215165 0.37307572 0.37637466 0.0054439683 0.5344859 0.6245295 0.62103164
0.74794024 -0.5168429 0.7380635 1.0125808 -0.040735886 0.66294223 0.4660794 -1.3829441
0.89755857 0.70415723 0.46353844 -0.58553714 -0.9373592 0.6165503 -0.023416767 0.35222054
0.08203699 0.73555124 0.22711216 0.60377645 -0.10916 0.42708087 0.30343825 0.53324956
0.43365496 -0.7562098 0.8164135 0.9049233 -0.22676773 0.7749489 0.35546207 -1.3560712
0.55218536 0.80888134 0.73310345 -0.58007544 -1.0186313 0.5448052 -0.026744438 0.44072357
-0.09521312 0.54187244 0.5472809 0.6577196 0.2291797 0.34441474 0.36379048 0.48657084
0.46648875 -0.731767 0.76992565 0.95107704 -0.2306618 0.5369236 0.37832868 -1.2447598
0.5036357 1.002124 0.80079466 -0.41853604 -1.0956459 0.61785555 0.00023516233 0.32202417
-0.15959513 0.8181429 0.29114026 0.3351696 0.031252395 0.69 0.45970714 0.6209377
0.84589446 -0.79092145 0.89449847 0.7356532 -0.16766152 0.6620581 0.34955472 -1.610759
0.9295262 0.74293524 0.7472341 -0.6824027 -0.8408452 0.7137191 -0.13760428 0.35073265
-0.00715047 0.13642205 0.08859744 -0.0515597 -0.19175637 -0.047497857 0.09568499 0.05354848
-0.2050754 0.08426492 -0.008938499 0.11652343 -0.16375054 -0.0119537935 0.022217123 0.0595327
0.16133301 -0.19141763 -0.032973222 0.01722314 0.036514137 -0.21221428 -0.03901435 -0.12125089
-0.16285326 0.033555396 0.012408862 0.11406057 0.17861861 -0.15519096 -0.15550919 -0.13168272
-0.01890311 0.14501268 0.14284974 -0.11068795 0.14281951 0.057388466 -0.10968487 -0.05714232
0.034207936 -0.02645258 -0.12246487 0.08575369 -0.15092811 0.006716635 -0.030494813 -0.088774666
-0.070541255 0.0854215 -0.015834225 -0.12593265 -0.11364286 -0.036680713 0.015268908 -0.02560482
-0.096784875 0.075581454 -0.038938258 -0.14982675 0.085599765 -0.03292259 -0.11344697 -0.00051539874
-0.107632704 0.14552703 0.027557781 0.07593874 0.034301564 -0.1618914 -0.17846744 -0.010798337
-0.10609301 0.75593954 0.32683527 0.53103936 0.153414 0.5918322 0.42884356 0.46845558
0.45484543 -0.6858295 0.618025 0.9732455 -0.02134681 0.6835855 0.4720717 -1.4372671
0.86460006 1.0267245 0.59061486 -0.52763754 -0.7904325 0.7206834 -0.073393084 0.504657
-0.19514804 0.18149835 0.2024025 -0.19472629 -0.0946681 0.033313252 0.0011927184 0.07596163
0.17986375 -1.3891258 0.5170536 1.0659921 -0.17525244 0.8912978 -0.23121631 -1.3329127
0.353634 0.7598434 0.56271726 -0.7581242 0.30719143 0.21927123 -0.3407151 0.08025247
0.62844354 -1.0711371 0.46547416 -1.2244506 0.652904 -0.09430631 0.14748143 -0.85540557
0.3783397 1.1788157 0.30869478 0.5604485 0.2232047 0.7265909 0.3369931 2.1472187

2.bias f4 [24]
00000000: d027 193f bff0 003f 7342 303f ff92 1b3f
00000010: 1143 193f d18d 34bd b992 15be de61 b0bc
00000020: 8c38 203f a5a1 413e 101f d73e f2ac 0e3f
00000030: 8f06 973e a77c 0b3f 768e 9e3e 8365 db3c
00000040: 9110 1c3e 8f5b df3e def7 1e3f da07 073f
00000050: 9641 f53e 401a 22be c6a0 b43e 6415 6f3e
0.59826374 0.5036735 0.68851393 0.60771173 0.5986796 -0.04408056 -0.14606752 -0.021531042
0.62586284 0.18909319 0.42015886 0.55732644 0.2949719 0.5448708 0.30968064 0.026781803
0.15240695 0.4362454 0.62096965 0.52746356 0.479016 -0.15830326 0.3527891 0.23348004

4.weight f4 [2, 24]
00000000: 353a 2e3f 1e3a 173f 1353 3f3f 9c7e 2f3f
00000010: 3ea7 103f 81db 13be eaca 8abc c8f3 dfbd
00000020: f2bc 183f cbde ad3e ccc1 0abf 3675 553f
00000030: 0bb6 0abf d783 0ec0 89b6 083f d8cc 8cbd
00000040: dc18 473f 66af 6c3f 754b c9bf 2f1c 0e3f
00000050: 35b7 1b3f 1aa2 32bd 48b0 5c3f 3c17 693f
00000060: f94c 213f 4282 413f 49a7 483f a107 383f
00000070: 8f29 563f 3ff3 453c 0238 ea3d 6311 81bc
00000080: 3934 3c3f 2a29 343f 2bab b8bf c0b9 ef3e
00000090: 2c30 06bf 92f4 cfbf 439b 493f 7f6f a6bd
000000a0: 392b 573f ea20 b73e caac 66bf ee6e 653f
000000b0: 1923 5a3f dd44 39be 065d 033f 5c5a c23e
0.68057567 0.59073055 0.74736136 0.68552566 0.5650519 -0.14439203 -0.01694246 -0.109351695
0.5966331 0.3395904 -0.5420196 0.83381975 -0.54184026 -2.2267969 0.53403527 -0.06875008
0.7777231 0.92455137 -1.5726153 0.55511755 0.60826427 -0.043611623 0.86206484 0.9105108
0.63008076 0.7558938 0.78380257 0.7188664 0.83657163 0.01208192 0.11436464 -0.015755361
0.73517185 0.7037531 -1.4427236 0.46821404 -0.52417254 -1.6246512 0.78752536 -0.08126735
0.8405033 0.357673 -0.90107405 0.8962239 0.85209805 -0.18092676 0.5131382 0.37959564

4.bias f4 [2]
00000000: f585 bf3d 05cc 133f
0.09351722 0.57733184
