AA203_HWs/hw4/qlearning_agent_policy_20250527_192531.pth (torch, 6473 bytes, 6 tensors)

0.weight f4 [24, 4]
00000000: 9ce2 c13e 939e 42bf 7c61 28bc 0888 e2bd
00000010: ce99 e13d 9ea3 87bf 6318 edbf 1e81 8ebf
00000020: 46f1 a63d 5548 28bf 4f8b a1bf 0fd1 04bf
00000030: 886d 17bd 5232 07bf 1a9a 67bf 6e38 03bf
00000040: 5ad8 293f 4766 46bf d98a 6ebf e703 19bf
00000050: 5027 5e3e 01fd 17bf 26da 8bbf bf36 83be
00000060: 080d c43e 9ee1 bcbe d6b9 10bf 00a7 1d3e
00000070: 5a64 b0be 3dff 29bf 73c1 f8be 74f0 dfbd
00000080: 3b79 b9be 687d f7be 9568 0bbf 928d 8fbe
00000090: 85a8 ca3d ad5a 273e 498f 083f 0e0d d53e
000000a0: 5824 a23e 19dc 44bd 0d93 e5be 47b4 d53d
000000b0: 303a 1cbe 2891 03bf 8aba 77be d5ea 1cbf
000000c0: 55a6 8f3e 1cdf 67bd 1b26 613f 39ad af3e
000000d0: 8725 e4be 4ac1 8d3e 654e 883f cb6c d83e
000000e0: 348a 4f3e 3e70 373d ca2f dd3e 597c c63e
000000f0: c9a2 e53e ddd7 9fbe 0bee 5cbf 3024 dfbe
00000100: 032f 893f d73b 693f 587d 053e ebca 41bf
00000110: 4178 7e3e ccc1 1dbf cabe dcbf 150b 04bf
00000120: aa0b 063f c648 52bf 3d18 b1bf f358 22bf
00000130: 8add 02bf 5548 94be 6aad 3abe ffa2 bbbe
00000140: 3001 b2bd 3b44 7dbe 8fff ee3e 50c7 423e
00000150: d0ac d5be 6a7c 7abf b0e9 00c0 4a65 6abf
00000160: 56ce 503c 8a5c 30bf ed21 1fbd bfbe a3be
00000170: 2ec7 c43e 6dfc 2ebf 8fd8 91bf ff13 0dbf
0.37868202 -0.76023215 -0.010277148 -0.11061102 0.11015664 -1.0596807 -1.8523067 -1.1133153
0.08151488 -0.6573537 -1.2620639 -0.518815 -0.03696969 -0.5281116 -0.90469515 -0.5125798
0.6634575 -0.7749981 -0.93180615 -0.5977158 0.21694684 -0.5937043 -1.0925949 -0.25627705
0.38291192 -0.36890882 -0.56533563 0.15395737 -0.34451562 -0.6640509 -0.4858509 -0.10934535
-0.36225304 -0.48337865 -0.54456455 -0.28037697 0.09895424 0.16343184 0.53343636 0.41611522
0.31668353 -0.048061464 -0.44838753 0.10434776 -0.15256572 -0.51393366 -0.24192253 -0.61295825
0.2805659 -0.056609258 0.8794877 0.34311846 -0.4455988 0.2768653 1.0648924 0.42270502
0.20267564 0.044784777 0.43200523 0.38766745 0.44850758 -0.31219378 -0.86300725 -0.43582296
1.0717472 0.91106933 0.13036096 -0.75700253 0.2485056 -0.61623836 -1.7245724 -0.5157941
0.5236155 -0.82142293 -1.3835522 -0.63416976 -0.5111929 -0.28961435 -0.18230215 -0.36647794
-0.08691633 -0.24733059 0.4667935 0.19021344 -0.41733408 -0.9784609 -2.0142632 -0.91560805
0.012744507 -0.68891203 -0.038850714 -0.31981465 0.38433212 -0.6835392 -1.1394213 -0.55108637

0.bias f4 [24]
00000000: acdd 5d3f a73e 85be 8844 413f 726e 4b3f
00000010: d371 3e3f 0e01 543f 14c3 143f 3430 2c3f
00000020: 3b3d 283f 70cb 413f b904 de3e 0a5d 643f
00000030: 908e 7d3f 2044 613f 677e 5d3f 4ff8 7a3f
00000040: 48ec aa3e 6554 5d3f 495e 5e3f 2079 233f
00000050: 26c8 653f 7299 8dbe 29db f93e 58b5 433f
0.8666637 -0.26024362 0.75495195 0.794654 0.7439243 0.8281411 0.58110166 0.6726105
0.6571843 0.75701046 0.43362978 0.89204466 0.9904566 0.87994576 0.86521 0.9803514
0.33383393 0.864569 0.8686262 0.638567 0.8975853 -0.27656132 0.48800018 0.76448584

2.weight f4 [24, 24]
00000000: f9e0 c13e 81bb b3bf 6061 8c3f 6c9f 433f
00000010: 6101 343f 3abe 3d3f 86b3 c63e 27cb df3e
00000020: 7e79 0d3f f0c1 863d 1578 813d f047 233f
00000030: 1982 c53d b516 e8bc 330c 433e 1f61 1f3f
00000040: d533 fabe cbd0 693f 0a19 a13f 99e1 183f
00000050: 7233 49bd a41a dfbf a717 043f 3f69 863f
00000060: 6877 35be 5a57 c73c 9e18 94bc 510d 02be
00000070: f84b 163d c6c0 ee3d 6705 24be 7f8d 0abe
00000080: 6730 1bbe 775e 1fbe 0bc5 dbbd ed0d 20be
00000090: cfab 9a3d 69cc 14be ca82 1ebe e902 a7bc
000000a0: edc7 c0bd 812e 3ebc 8d5b cdbb b6a3 1f3e
000000b0: 7d45 3bbe 18ff 6cbd 27a7 113e 3a22 0b3e
000000c0: 7bd0 1e3e 446e aa3c 18a7 44bd 3ca2 f4bc
000000d0: 9e8c 5338 a409 433d 4793 1c3d ee48 623d
000000e0: 1f69 dd3d b2cd dabd 5b06 60bd ca5a de3c
000000f0: 4dc6 283e 766d ebbd 0317 11bd 811b 38be
00000100: a161 36be 8ffe b4bd e2a7 10bb 61d2 d5bd
00000110: da21 4dbe b6f8 e9bd dc6f 50be 8343 443e
00000120: 6f04 6f3e b29b b9bf 2b8a 763f 98a1 803f
00000130: a839 863f 60dd 273f d055 3f3e 9e36 b93e
00000140: 8f33 2a3f 2e29 eb3d 3bb0 a03e bba4 673f
00000150: 41b3 1d3e 45e9 c3bd 02cc eb3d 9376 3f3f
00000160: 329b 59be 7ba4 663f f748 a53f 7e56 cf3e
00000170: b17b 8fbc b45e b3bf eaaf 753e 5528 7b3f
00000180: 5af5 c7be a86e bb3f 2751 593f 34d3 013f
00000190: 5bbd 493f 64f4 533e ac70 aabe 80f8 47be
000001a0: 0dc5 8e3d cf80 cabf 2ca8 c7be 7576 b63e
000001b0: a13c a3bf 4041 afbf 1a3f 88bf 1694 013f
000001c0: 5b59 593f c27f 1d3f a588 6e3f ef69 d8bd
000001d0: a127 6cbf 4c6f 503f fa8e 60bd 57f0 473f
000001e0: b4ae 123f ca93 aebf fa4c 8d3f c832 803f
000001f0: 6538 543f bdd9 293f a6c3 0c3e 8baa 233f
00000200: 8933 0d3f 3d5c 503d 704a 833e a2e4 663f
00000210: 52e6 c3bd 96b6 a8be df1b 533c e077 e43e
00000220: e908 c4be b760 403f 3712 9d3f 8733 813e
00000230: 67a3 923e 786c c7bf 99f1 1b3f efef 8e3f
00000240: dd32 c53e 7c0c a0bf 4ede 9e3f c4f7 833f
00000250: 2070 5b3f e356 d13e d510 573e 2741 013f
00000260: e49e d53e 43dc c33d e79c 8c3e ff18 2f3f
00000270: 22b9 21be 21ff cebd 5de6 3c3e d8fb 463f
00000280: 7464 9cbe 9881 833f 5ece 963f 0834 d23e
00000290: f2a2 0a3e de47 e2bf 8e5e c53e 180b 823f
000002a0: 0542 5e3e cfec 9dbf f5ef 973f 7a0a 3e3f
000002b0: 556d 433f 306d d13e 8fdb b0bd 37ef dd3d
000002c0: 21a3 823e 8fd8 98be c63a 7e3e 8947 493f
000002d0: 1879 2ebe e2b2 7cbe 3ff0 91be faa2 e83e
000002e0: 6f26 57be 7f40 5d3f dce1 9e3f 6138 f73e
000002f0: 00ca a8bd 7634 bfbf 626e 843e 56c7 6b3f
00000300: af5b 033f c1dc c6bf 4688 563f 2036 313f
00000310: 7356 6a3f cf59 203f 4f73 b43e fee2 ae3e
00000320: 4093 103f 6459 8c3d 4582 723d 6c53 5c3f
00000330: bf3e 123e ca1c 85be d4e9 db3b 7e88 133f
00000340: 40b4 c3be fb78 7a3f 49db af3f 375b 9d3e
00000350: 232b 4e3d fe26 e1bf c943 cc3e 249b 5c3f
00000360: 77e3 993d ab0a bc3f d7a4 bf3e d052 b4bb
00000370: c5f0 d93e 168d e63d 430a e23d 8557 493e
00000380: 9880 60bd fb36 8fbf 2910 e4be 74a3 6b3c
00000390: 7e56 f4be a36c 5dbf a14b 2dbf 7e6a 333e
000003a0: 1346 cb3d 3706 f33e e7d6 423f 6bde b0be
000003b0: 1995 99be 3e30 ed3f fe08 5b3e d910 2c3e
000003c0: 8438 573e b2de b4bf eb7f 593f 3f66 743f
000003d0: b3d6 813f 43ed 223f 8ddc 943e 7bfd 7b3e
000003e0: 5d8a 193f 3962 88bd 6aa6 b33e 9484 1f3f
000003f0: 6eb9 19be 5651 e5bd 77d1 e9bd 2964 353f
0.37866953 -1.4041597 1.0967216 0.76415133 0.70314604 0.7411839 0.3880884 0.4370968
0.5526351 0.065799594 0.06321732 0.6378164 0.09643955 -0.02833114 0.19047622 0.6225757
-0.4886767 0.9133422 1.2585766 0.59719235 -0.049121328 -1.7430005 0.5159859 1.0500869
-0.17721331 0.024333645 -0.018078145 -0.12700392 0.036693543 0.11657862 -0.16017686 -0.13530539
-0.15155183 -0.15563379 -0.10730942 -0.15630312 0.07552301 -0.14531101 -0.1547958 -0.02038713
-0.09413133 -0.011607767 -0.006267017 0.15589795 -0.18288226 -0.057860464 0.1422392 0.13587275
0.15509216 0.020804532 -0.048010916 -0.029862516 5.043728e-05 0.047616616 0.038226392 0.055245332
0.10811066 -0.106837645 -0.05469356 0.027142901 0.16481896 -0.114954874 -0.035422336 -0.17979242
-0.1781068 -0.08837616 -0.0022072722 -0.10440517 -0.20032445 -0.11424391 -0.20355171 0.19166379
0.23341535 -1.450064 0.9630458 1.0049314 1.0486345 0.65572166 0.18685079 0.36174482
0.6648492 0.11482464 0.31384453 0.90485734 0.15400411 -0.09565977 0.11513521 0.74790305
-0.21250609 0.9009473 1.2912892 0.40495676 -0.017515035 -1.4013276 0.23992887 0.98108417
-0.39054376 1.4643145 0.84889454 0.50712895 0.7880456 0.20698696 -0.33289087 -0.19528389
0.06971178 -1.5820559 -0.38995492 0.3563725 -1.2752877 -1.3691788 -1.0644257 0.50616586
0.8490197 0.6152307 0.93177253 -0.1056708 -0.9224797 0.81419826 -0.054823853 0.78101104
0.57297826 -1.3638852 1.1039116 1.0015497 0.8289855 0.6634787 0.13746509 0.639321
0.5515676 0.050869215 0.2564273 0.90192616 -0.095654145 -0.32951802 0.012885063 0.44622707
-0.38288048 0.75147575 1.2271184 0.25234625 0.2864029 -1.5579977 0.60915524 1.1166972
0.38515368 -1.250381 1.2411592 1.0309987 0.85717964 0.40886602 0.21002515 0.5049004
0.41722786 0.09563496 0.27463457 0.68397516 -0.15793279 -0.10107256 0.18447252 0.77728033
-0.3054539 1.0273924 1.1781728 0.41055322 0.13538721 -1.7678182 0.38548702 1.0159636
0.21704872 -1.2337893 1.1870104 0.74234736 0.763387 0.40903616 -0.086356275 0.10836642
0.25515082 -0.2985272 0.24827108 0.7862478 -0.17038381 -0.24677613 -0.28503606 0.4543684
-0.21010755 0.8642654 1.2412677 0.482852 -0.082416534 -1.4937885 0.25865465 0.9210104
0.51311773 -1.5536119 0.83801687 0.69223213 0.9153816 0.6263704 0.35244223 0.34157556
0.56474686 0.068529874 0.059206266 0.8606479 0.14281748 -0.25998527 0.006711224 0.57630146
-0.38223457 0.9784085 1.3738796 0.30733654 0.050334107 -1.7590024 0.39895466 0.86174226
0.075140886 1.4690756 0.3743045 -0.005503036 0.42566505 0.11257379 0.110371135 0.19662292
-0.054810137 -1.1188654 -0.4454358 0.014382232 -0.47722238 -0.8649389 -0.67693526 0.17521092
0.09925475 0.4746568 0.76109165 -0.3454469 -0.29996565 1.8530347 0.21390149 0.16803302
0.21017653 -1.4130461 0.8496081 0.95468515 1.0143646 0.6364328 0.29074517 0.24608414
0.5997675 -0.066593595 0.350879 0.62311673 -0.15012142 -0.11197154 -0.114169054 0.7085596

2.bias f4 [24]
00000000: 9ee4 ae3e b4f9 da3c e9f9 efbd 8705 0e3f
00000010: 8f1d b23d de65 ec3e c8ec ce3e c7c5 de3e
00000020: 1bc8 873e 902e 52bd c21f fc3e 9907 123f
00000030: 5d0b cf3d 4ba4 b83e 9079 40be 7076 49be
00000040: 5fc1 9d3d 5083 e33e 91f1 cb3e 4578 a03e
00000050: eb0d c83e 8f8b 463c 0b8d 073f 25d3 ed3e
0.34158796 0.026730396 -0.117175885 0.55477184 0.08697044 0.46171468 0.40415025 0.43510267
0.26519856 -0.051313937 0.4924298 0.57042843 0.10109589 0.36062846 -0.18796372 -0.19674087
0.07702898 0.4443612 0.39832738 0.31341758 0.3907312 0.012118234 0.5294959 0.46450153

4.weight f4 [2, 24]
00000000: c04e 233f b57e 1fbe c5ec 883d e746 2e3f
00000010: ba1b 44bf c2b3 223f 427e 353f ff57 553f
00000020: a2f9 2a3f 42a3 30bf 3d8d 543f f09a 133f
00000030: 9075 06be 6af4 2b3f 8436 143d 4173 403e
00000040: c512 debe c80b 413f b296 393f 7702 b7bf
00000050: 428d 153f 1045 ebbd 74ae 0e3f 468a 393f
00000060: c647 093f f731 d4bd 448e f3bd 214c e33e
00000070: c4b4 a4bf cbfb 173f e839 0c3f 469d 153f
00000080: 4990 4a3f 7e95 b5bf 685b 3f3f 5dab 043f
00000090: cf03 6cbd 6c38 4a3f 0fe2 273e cd90 ae3d
000000a0: 8086 ad3e d966 263f e842 0f3f eab6 9dbf
000000b0: 718c 3c3f 1df7 32be c550 3c3f 84e8 133f
0.6379204 -0.15575679 0.06685785 0.6807694 -0.7660481 0.6355554 0.7089578 0.83337396
0.6678716 -0.6899911 0.8302801 0.5765829 -0.13130784 0.6716982 0.036184803 0.18793966
-0.43373695 0.754086 0.7249557 -1.4297627 0.5841867 -0.11487782 0.55734944 0.72476614
0.5362514 -0.103610925 -0.118923694 0.4439402 -1.2867665 0.5936858 0.5477586 0.58443105
0.7912641 -1.4186246 0.7474885 0.5182398 -0.05762082 0.7899234 0.16394828 0.08523712
0.33891678 0.65000683 0.55961466 -1.2321446 0.73651797 -0.17477079 0.73560745 0.57776666

4.bias f4 [2]
00000000: 8959 f23e c64e 673e
0.47333935 0.22588643
