AA203_HWs/hw4/qlearning_agent_policy_20250527_203054.pth (torch, 6473 bytes, 6 tensors)

0.weight f4 [24, 4]
000000 34 74 7a bf b1 a4 09 bf b2 ea 83 bf d7 9f 1c bf
       -0.9783356 -0.53766924 -1.0305998 -0.61181396
000010 36 3b 2f be 13 30 da be 61 3d fd 3c e4 af 0f 3d
       -0.17112431 -0.42614803 0.030913057 0.03507985
000020 3c 5b 00 3e bd 6b fe be 0e b9 50 be f2 f9 19 be
       0.12534803 -0.49691573 -0.20383093 -0.15036753
000030 33 13 d9 3d fc cb 3c bf f0 2b 8f bd e4 82 a3 be
       0.10599365 -0.73748755 -0.06990802 -0.319358
000040 00 5d 79 be 69 36 7b 3e d3 49 75 3f 5c f3 17 3e
       -0.24351883 0.24532475 0.9581577 0.14838928
000050 7c c3 0d bf 7d d8 c4 3e 6f f6 16 3f d2 ee d8 3e
       -0.5537641 0.38446417 0.5896978 0.42369705
000060 9f a3 81 be 70 84 21 be 94 18 16 3f af 83 cc 3e
       -0.25320145 -0.15773177 0.58631253 0.39944217
000070 3f 6e 02 40 66 32 fd 3f 09 11 8c 40 ec 91 e2 3f
       2.037979 1.9781005 4.3770795 1.7700782
000080 59 86 a0 bf 00 0f 58 3d 48 7a 09 3f 14 b1 51 bd
       -1.2541 0.05274868 0.5370221 -0.051194265
000090 60 7b 6d bf a4 5a 73 bc 82 28 ff 3e b5 b9 b6 be
       -0.9276638 -0.014853153 0.49835593 -0.35688558
0000a0 bc 14 98 bf d5 ee 8a 3c 19 2e 47 3f 0c f2 4a bc
       -1.1881328 0.016959587 0.77804714 -0.01238681
0000b0 f1 54 f0 3d d3 22 e6 be 71 61 04 bf ec d8 ab be
       0.11734951 -0.44948444 -0.51711184 -0.33563936
0000c0 dd 0c 8b 3c 9d d8 0e bf 37 6f 82 be 6b cc 89 3d
       0.016973907 -0.55799276 -0.25475475 0.06728443
0000d0 79 f1 14 bc 89 7e 2c bd 30 35 b7 be 5e db d4 bd
       -0.009090775 -0.04211286 -0.35782766 -0.103934035
0000e0 d2 21 1b bf 84 58 e4 be a7 b7 12 bf df 15 33 be
       -0.6059848 -0.44598782 -0.5731148 -0.17488812
0000f0 d5 5f 1d 40 fc 50 f9 3f 2e 51 0d 40 bd 99 f4 3f
       2.4589741 1.947784 2.2080798 1.9109417
000100 bd eb e9 bf 6a 60 81 bf 41 71 f2 bd db 68 28 be
       -1.8275067 -1.0107548 -0.11838008 -0.16446249
000110 eb db 4b 3f 91 16 f9 3f b6 8c 6e 40 01 fc e9 3f
       0.79632443 1.9460012 3.7273383 1.828003
000120 12 62 9d bf 0c 1d 90 bf be ab d7 3c 3c 70 3f 3e
       -1.2295554 -1.1258864 0.02632701 0.18695158
000130 cf 2b 6e be 4e c5 4f be 4b bd 23 3f 1c 2f 5b be
       -0.23258899 -0.2029011 0.63960713 -0.2140469
000140 8c b5 55 be 0e a2 35 bd 26 68 ab 3d 6c 0b 09 3f
       -0.20870036 -0.044344 0.08369474 0.53533053
000150 f9 f3 3f 40 8b 8d a8 3f 40 29 da 3e c2 ba 7e 3e
       2.999266 1.3168195 0.42609596 0.2487593
000160 0e c5 ca bf b1 14 ad bf af af 30 c0 b3 ff b0 bf
       -1.5841386 -1.352194 -2.7607229 -1.3828033
000170 d3 19 ca 3d 08 ae a2 be 7b 42 3d bf c2 3a 8a be
       0.09868207 -0.317734 -0.73929566 -0.26997954

0.bias f4 [24]
000000 7e 35 4d 3f 3b 95 83 3f 1a cd 88 3f 1c 54 38 3f
       0.8015975 1.0279917 1.0687592 0.7200334
000010 7f 57 11 3f e8 30 57 3f 6a 08 89 3f e1 ee 35 3d
       0.56774133 0.84059 1.0705693 0.044417266
000020 bd 50 13 3f 40 4e 4e 3f 67 7b 17 3f b9 96 46 3f
       0.5754507 0.8058815 0.5917267 0.77573735
000030 78 16 89 3f 63 45 65 3f 0d 36 86 3f f2 ec b0 3e
       1.0709982 0.89559 1.0485245 0.34555775
000040 f1 d9 13 be 48 11 6e 3e 19 00 2a 3e 36 38 40 3f
       -0.14438607 0.2324878 0.166016 0.7508577
000050 b4 68 52 3f a9 27 78 3e 65 70 45 3c 9d 26 4b 3f
       0.82191014 0.24233879 0.012050723 0.79355794

2.weight f4 [24, 24]
000000 ec 42 e0 3e a0 57 dc 3e cc 3d 9f 3e 1c d8 ee 3e
       0.43801057 0.43035603 0.31101835 0.46649253
000010 b2 bb 14 3f 44 65 d2 3e 8f 04 71 3e 4d 47 0d c0
       0.580989 0.41092885 0.23536895 -2.2074769
000020 e4 f6 23 3f 33 2f 7f 3e f2 67 27 3f 5d e7 f3 3e
       0.640486 0.24920349 0.6539298 0.47637454
000030 aa 48 ff 3e 00 3b 1f 3f ec 76 08 3f 72 5a 38 c0
       0.49860126 0.621994 0.5330646 -2.8805203
000040 00 a5 f6 be fb 52 33 c0 42 f1 99 be 2c 00 4e 3f
       -0.4817276 -2.8019397 -0.30066878 0.8046901
000050 48 b9 b9 3e 49 0d f0 bf 9b 57 8c bf d2 a9 dd 3e
       0.3627417 -1.8754054 -1.0964235 0.43293625
000060 bc c6 ac bd e8 04 92 3d 5e 0b 8b bd f0 21 33 3e
       -0.08436343 0.07129842 -0.067892775 0.17493415
000070 f1 33 13 3d 1e a9 c2 bd 92 75 de bd 4a dd fc bd
       0.035938207 -0.09504913 -0.108622685 -0.12346895
000080 e0 49 3c be 75 8c 1b 3d e3 7e 84 3b b4 c3 c8 bd
       -0.18387556 0.037975747 0.0040434464 -0.098029524
000090 2d 43 2e be 2e 7b a8 bd 39 05 aa 3c ec 04 68 3d
       -0.17017813 -0.0822662 0.020754443 0.05664532
0000a0 d5 f1 09 be 3a e5 d3 bd e1 8c fe 3c 2b 28 04 be
       -0.13471158 -0.10346456 0.031073036 -0.12905948
0000b0 ed 1d 43 3c 02 f8 37 be 89 67 3c be a1 8a 9d bd
       0.01190899 -0.17965701 -0.1839887 -0.07692457
0000c0 9e 2c de 3e 2a 6f d3 bc a5 82 51 3e b3 81 01 3e
       0.43393415 -0.025809843 0.20459993 0.12647133
0000d0 82 22 6e bd 1c 22 0f be 33 dd a2 be 4a 87 1f bf
       -0.058138378 -0.13977855 -0.31809387 -0.6231581
0000e0 9c 86 94 bd 16 fa 21 3e ea 17 5a bd 5b 62 84 3e
       -0.07252237 0.15818056 -0.053245462 0.2585629
0000f0 40 d6 d9 bd 36 84 60 3d 48 0c 98 bd 00 0c af 3e
       -0.10636568 0.054813586 -0.074242175 0.34188843
000100 2e e8 4f 3c b2 6b db be 40 da 5b be 1f 30 1e bd
       0.012689633 -0.42855603 -0.21469975 -0.03862011
000110 91 ab 1a bf 03 5e 39 3f a0 11 ef 3f 0d b7 d4 3e
       -0.6041804 0.72409075 1.8677254 0.41545907
000120 1a 34 f5 3e 31 0c f7 bc 09 a8 88 3e 5f 33 1a 3d
       0.47891313 -0.03015718 0.266907 0.037646648
000130 c3 fe a2 3d 01 4b a9 bb 69 9c 5f be 62 af 78 bf
       0.07958748 -0.005166412 -0.2183701 -0.9714261
000140 49 fe ac 3e a1 c4 0e 3f 67 96 87 3e e4 8b 21 3f
       0.33787754 0.5576878 0.26481935 0.6310408
000150 f5 61 8d bd 02 01 73 3e 3f bb cd 3e 66 5b dd 3d
       -0.069034494 0.23730853 0.4018192 0.108084485
000160 6d 60 1c bf e2 6f 2a bf 6c 1b 1e bf 61 b4 67 3e
       -0.61084634 -0.6657697 -0.6176059 0.22627403
000170 79 9c a4 3d 23 21 04 3f eb 11 a0 3f 78 2d e1 3e
       0.08037657 0.5161306 1.2505468 0.43980002
000180 8b fd 13 be c7 53 cd bd fa e3 4e 3d f2 59 54 3c
       -0.14452188 -0.10025745 0.050510384 0.012960898
000190 20 bc 5d 3d e9 46 a8 bd 64 17 c0 bd f0 46 14 3d
       0.054134488 -0.0821665 -0.093794614 0.036200464
0001a0 b0 3c 84 bd c1 3f d4 bd ef b1 a7 bd 45 b9 42 be
       -0.06456888 -0.103637226 -0.08188235 -0.19015987
0001b0 97 28 2e be 4e 89 b5 bd 54 b2 0e 3e 81 bb a8 3d
       -0.17007671 -0.088640794 0.13935214 0.082388885
0001c0 85 dd 16 be 5c a0 64 bd 18 22 16 be 44 c4 06 be
       -0.1473294 -0.055816993 -0.14661443 -0.13160807
0001d0 6d d0 c7 3d 0e b4 d5 bd c2 ea 19 3e e5 fc 60 bd
       0.09756551 -0.10434733 0.15030959 -0.05492868
0001e0 38 d9 84 3e d1 51 67 3e 32 af 6b 3e 94 63 89 3e
       0.25946975 0.22589804 0.2301605 0.26833785
0001f0 d2 a4 89 be 4d e9 10 be 6c 6b 66 3e d6 c4 a1 3e
       -0.2688356 -0.14151497 0.22501916 0.31595486
000200 20 8d fe bd 12 dd 31 be 20 43 58 bd df aa ac 3e
       -0.12429261 -0.17369488 -0.05279839 0.33724114
000210 63 d1 10 3f ac 45 6b 3a 62 9f ce 3e 7a 0d f5 bd
       0.565695 0.00089749205 0.40355974 -0.11965461
000220 ed 14 1e 3f c5 41 81 3e 9f da 59 3f db 04 c0 3d
       0.6175068 0.2524549 0.85099214 0.09375926
000230 d8 4b 94 3e e2 44 49 bf 38 00 45 3d a0 8b 24 3d
       0.28964114 -0.7862073 0.04809591 0.04017222
000240 48 3d 9f 3e 2b 9f 05 3f 6d 86 25 3f eb 5d 33 3f
       0.3110144 0.52195996 0.6465824 0.7006518
000250 49 53 3f 3f 44 bc 0c 3f 0d 48 42 3e 72 4d 0d c0
       0.7473646 0.5497477 0.18972798 -2.207852
000260 0b 93 e8 3e 3b 21 cd 3e 24 e2 f7 3e 91 f7 37 3f
       0.45424685 0.40064415 0.4841472 0.7186213
000270 3f 2f 8c 3e 08 c7 16 3f 68 ca f0 3e 57 47 2c c0
       0.27379796 0.5889745 0.47029424 -2.6918542
000280 51 3b 17 bf 72 b0 38 c0 60 52 60 be 75 13 07 3f
       -0.59074885 -2.8857694 -0.21906424 0.52764064
000290 ba 76 8f 3d 7d 60 c1 bf 23 d8 3b bf 8d c2 2d 3f
       0.07005067 -1.5107571 -0.73376673 0.67874986
0002a0 dd 4c 82 bd 31 ba 07 be d4 fc ff 3d 8f c5 3e be
       -0.06362317 -0.1325462 0.12499395 -0.1863005
0002b0 59 a4 ef bd 39 63 48 bc b5 95 82 bd d5 57 13 be
       -0.11701269 -0.012230688 -0.063762106 -0.14388974
0002c0 c6 2b ff bd 18 ae 54 be b9 5a 1c 3e 3a 40 a2 3d
       -0.12459521 -0.20769536 0.15268983 0.079224065
0002d0 3b 31 0a 3e 74 53 cf 3c 2f 1e 1c be 3d 34 51 bd
       0.13495342 0.025308348 -0.15245889 -0.05107521
0002e0 83 5d 83 bc 13 2a 14 bd c3 96 b5 bc 62 66 e5 bc
       -0.0160358 -0.036172938 -0.022166615 -0.028002921
0002f0 77 5c d1 3c d0 ae 33 bd c9 d8 16 3e 9d b2 38 be
       0.025556786 -0.043867886 0.14731134 -0.18036886
000300 14 8d 5d 3e 77 92 0c 3f 81 2d ac 3e 69 f6 2b 3f
       0.21635848 0.5491099 0.33628467 0.6717287
000310 42 4b de 3e ee 7d db 3e 8d 28 b2 3e 55 36 07 c0
       0.43416792 0.42869514 0.34796563 -2.1126912
000320 fd 31 31 3f e2 db e1 3e 98 57 00 3f 89 3e 06 3f
       0.692169 0.4411307 0.5013366 0.5243917
000330 d6 0b cd 3e 22 77 19 3f bc 10 ef 3e 4b 66 41 c0
       0.40048093 0.5994741 0.46692455 -3.0218685
000340 eb 17 13 bf bf fc 3b c0 08 3b 88 be 26 2c 03 3f
       -0.5745837 -2.9373014 -0.26607537 0.5123924
000350 69 18 bc 3e a7 37 db bf b3 92 84 bf 43 f9 fd 3e
       0.36737373 -1.7126359 -1.0357269 0.49604234
000360 a8 29 e3 3e cd 9b 1d 3f ae 7c 15 3f 2a 98 f6 3e
       0.4436772 0.6156586 0.5839337 0.48162967
000370 1f c2 47 3f f7 7d ac 3e dc 1f 94 3e 79 1d 05 c0
       0.7803058 0.33689854 0.28930557 -2.0799239
000380 8b a9 48 3f 5d 04 16 3f 8f 4d 38 3f 2e b8 2a 3f
       0.783837 0.5860041 0.71993345 0.66687286
000390 3b 65 e9 3e 1a 64 f2 3e 56 96 37 3f 3b e6 35 c0
       0.45585045 0.47341996 0.7171377 -2.8421772
0003a0 70 03 38 bf 76 8f 39 c0 31 ec 67 3d e7 eb 3e 3f
       -0.71880245 -2.8993812 0.056621734 0.7457871
0003b0 39 f2 e5 3e 96 e8 e9 bf 77 14 73 bf a2 da 2e 3f
       0.44911364 -1.8274105 -0.949531 0.6830236
0003c0 45 98 0c 3f b4 4b 0c be f4 01 a1 3e 66 37 bb 3e
       0.54919845 -0.13700753 0.31446803 0.36565703
0003d0 80 50 00 bf 4b 6d ae be de 55 f3 be 0b c1 6f 3e
       -0.50122833 -0.3406776 -0.4752645 0.23413484
0003e0 73 a4 31 bc f6 2c 5e 3e d7 52 26 be e5 b0 e9 3e
       -0.01084243 0.21696839 -0.16242538 0.45642772
0003f0 e2 66 ff bd e0 3b a3 3e 21 a8 39 3e be 80 53 3f
       -0.12470795 0.31881618 0.18130542 0.8261832

2.bias f4 [24]
000000 20 27 e8 3e d3 66 13 be 85 a1 81 3d 35 f3 d6 3e
       0.4534235 -0.14394693 0.063296355 0.41982427
000010 99 78 ed 3d e6 31 df 3d c9 9f f1 3e 9d fa 6e bc
       0.11595268 0.10898189 0.4719222 -0.014586118
000020 da b9 02 3f 64 2a 09 3f 46 0f 40 bd 42 f2 dd 3e
       0.51064837 0.5358031 -0.046889566 0.4334889
000030 41 94 25 3e e9 f5 c2 3e 57 ce 71 3f 54 87 1c 3f
       0.16169836 0.3807824 0.94455475 0.61143994
000040 35 e4 25 3f 16 6e c4 3e 8c 01 36 3f 64 2f d8 3e
       0.6480134 0.3836524 0.7109611 0.42223656
000050 b0 a3 e4 3e b9 a3 9d 3e 04 da e3 3e 94 3a 27 3f
       0.44656134 0.30788973 0.4450227 0.6532376

4.weight f4 [2, 24]
000000 47 b5 a8 3f e4 fa 2a be 47 b5 bf 3d 54 f1 0f 3f
       1.3180321 -0.1669727 0.09360748 0.5622761
000010 8e 9b c9 3c 24 88 63 bf 5b c4 a0 3f 77 79 a0 bd
       0.024610307 -0.8887961 1.2559923 -0.078356676
000020 7f 15 a3 3f 0b 90 8f 3f 96 cf 07 bf f3 6f 86 3f
       1.2740935 1.1215833 -0.53051126 1.0502914
000030 a7 19 66 bd 32 a7 bb 3f fc c2 ac 3e ed 6b c0 3f
       -0.056176808 1.4660399 0.3374251 1.5032936
000040 3e 40 8e 3f 19 55 f7 3e 4d 64 81 3f 5e 7e a6 3f
       1.1113355 0.48307112 1.0108734 1.3007314
000050 d2 9f e0 bf f0 3f b5 3f a5 5c 89 bf 46 3d 89 3f
       -1.7548773 1.4160137 -1.0731398 1.0721824
000060 08 81 aa 3f bf 03 27 bd 9d 70 8e bf 19 08 ee be
       1.3320627 -0.040775057 -1.1128117 -0.46490553
000070 39 c5 9e bd db 5d 29 3e ad 17 92 3f 85 81 0b be
       -0.07752461 0.1653971 1.1413475 -0.13623627
000080 3e 1a a2 3f 80 6e 8b 3f 81 db 8c bf 8f b5 97 3f
       1.2664258 1.0893097 -1.1004487 1.1852282
000090 5c 9c 14 bd ee ec ca 3f 07 40 8c 3f d2 25 be 3f
       -0.03628193 1.5853555 1.095704 1.4855292
0000a0 2d c6 94 3f fc 14 19 bf 94 78 93 3f ab 11 a4 3f
       1.1622978 -0.59797645 1.1521173 1.2817892
0000b0 3d 3f b1 bf c0 7c 90 3f fc 60 24 c0 7c 83 98 3f
       -1.3847424 1.1288071 -2.5684195 1.1915126

4.bias f4 [2]
000000 6d cc 49 3f b3 33 26 3f
       0.78827554 0.64922637
