AA203_HWs/hw4/qlearning_agent_policy_20250527_182236.pth (torch, 6473 bytes, 6 tensors)

0.weight f4 [24, 4]
000000 6a 68 58 3d 98 06 82 3d 7d 67 0f 3f 7f ed 1d 3d
       0.052833952 0.06348914 0.56017286 0.038556572
000010 55 3b 50 bf 55 e8 d1 3d 9d 2e f5 3f 26 b0 5d 3f
       -0.81340533 0.10249392 1.915485 0.86596906
000020 15 8a b3 3d b7 81 7f bd 3d be c8 3d c8 71 2b 3e
       0.087665714 -0.062379565 0.0980191 0.16742623
000030 14 dd 61 be 25 33 0a 3f f2 ef 8a 3e ed e3 1e 3e
       -0.22056991 0.5398429 0.2713619 0.15516634
000040 7d 43 f2 bd 87 2f 68 3c 22 ab ef 3d 35 5b 25 bd
       -0.118292786 0.014171488 0.11702563 -0.040370185
000050 32 40 e6 3e 1c a9 8f bd a0 d1 a5 be 0e 10 cb 3e
       0.44970852 -0.07014677 -0.32386494 0.39660686
000060 70 8d 4b 3f 9a dd 6c 3f ba 6b 24 3f 5b 9c fd 3e
       0.7951269 0.9252564 0.6422688 0.49533352
000070 af 3e b1 be 3f d9 5f be 80 44 04 3f f3 fa 22 3f
       -0.34618136 -0.21860217 0.5166702 0.6366417
000080 f0 94 1f 3f b7 ad 25 3f 8a 3c 80 3e b9 2d 04 3f
       0.62336636 0.6471819 0.25046188 0.5163227
000090 67 6f c2 3d 54 85 8c 3e 1a 63 b9 3e 9a ad f4 3e
       0.094939046 0.2744547 0.3620842 0.47788697
0000a0 75 4a 91 3e 2e 0c 94 be 11 7b d4 be 32 16 53 bd
       0.2837712 -0.28915542 -0.41500142 -0.05153484
0000b0 73 67 58 3e 91 02 3e 3f 1e 16 04 40 40 21 a1 3f
       0.21133213 0.74222666 2.06385 1.2588272
0000c0 ed 39 77 3e b2 22 32 be 73 cd d6 be c0 7f 75 3e
       0.2414319 -0.17396048 -0.4195362 0.23974514
0000d0 63 4a 37 3e a4 7b 06 bf f4 f7 29 c0 01 32 8b bf
       0.1789947 -0.5253241 -2.6557589 -1.0874635
0000e0 35 7f 82 3d d2 c7 0e 3a fc e0 8a be 21 50 92 3e
       0.06371919 0.00054466457 -0.27124774 0.28576759
0000f0 66 1b e1 3e 42 59 07 3f 5b f6 f9 3d 08 19 00 3f
       0.43966216 0.5287057 0.12205192 0.50038195
000100 0b 36 59 3e b4 1b eb be a3 7d 19 c0 56 00 b0 bf
       0.21212022 -0.45919573 -2.3982933 -1.3750103
000110 a4 9f 29 3f ac 89 3a 3f 83 4c 8e be 5e 79 11 3f
       0.6625922 0.7286632 -0.2779275 0.56825817
000120 85 d5 34 bf 4e 31 ff 3e 4e 22 fb 3f d6 e5 81 3f
       -0.70638305 0.49842304 1.9619844 1.0148265
000130 aa 3b 83 3d e3 db d4 3d 86 49 4e 3f 73 e9 44 be
       0.064078644 0.103935026 0.8058094 -0.19229679
000140 d8 21 1d 3e 41 82 ad 3f db 67 10 40 b3 3d 95 3f
       0.15344942 1.3555375 2.2563388 1.1659454
000150 0b a5 9c be 9e 4f 15 3f 91 cc 74 3f ae e1 a4 3e
       -0.30594668 0.5832461 0.95624644 0.3220343
000160 fc 76 5a 3d 4f ef a3 be b1 0d c0 3e 2e d4 46 bd
       0.05333613 -0.32018515 0.37510446 -0.048542194
000170 fe 08 72 bd a3 a0 a7 3e 73 49 a5 3f 8a 65 71 3f
       -0.059090607 0.32739744 1.291304 0.9429556

0.bias f4 [24]
000000 c6 57 5c 3f f9 6f b6 3e e1 e6 87 3f f6 9b 56 3f
       0.8607143 0.35632303 1.0617334 0.8383173
000010 21 c5 5d 3f fa 85 95 3f d4 08 4c 3f 28 28 07 3e
       0.8662892 1.1681511 0.7970097 0.13198912
000020 24 ff 38 3f 55 c1 91 3f 88 a4 58 3f 0c b0 3d be
       0.72264314 1.1387125 0.84626055 -0.18524188
000030 15 85 57 3f 51 e8 82 3e 2d da 62 3f d9 2f 59 3f
       0.8418744 0.25567868 0.8861416 0.84838635
000040 e0 bb 18 be 06 4e 21 3f 38 0d db 3e b0 bf 44 3f
       -0.14915419 0.6300968 0.42783523 0.7685499
000050 d4 f7 5d 3d d9 32 3b 3f 32 0a 25 3f 8e 07 0c 3f
       0.054191425 0.7312446 0.6446868 0.5469903

2.weight f4 [24, 24]
000000 70 b7 74 3f cc cf f5 be 0b 1a 59 3f f0 9e ff 3e
       0.95592403 -0.480101 0.84805363 0.49925947
000010 3b 07 43 3f 5f bd f3 3e 19 53 ef 3e 25 1b 0d 3e
       0.7618291 0.47605416 0.46743086 0.13779886
000020 1f 52 3c 3f db e0 3f 3f 13 76 2e 3f 1b 48 fe be
       0.73562807 0.7495248 0.68148917 -0.49664387
000030 15 cb 03 3f 14 98 8c be b0 ec fc 3e e4 81 17 3f
       0.51481754 -0.27459776 0.49399328 0.5918257
000040 6d e2 59 bf e6 c9 4c 3f fb d8 bb bf a9 f7 13 3f
       -0.85111123 0.7999557 -1.4675592 0.57799774
000050 a4 17 98 bf 79 03 27 3f 8d 66 21 3f 50 2c 11 bf
       -1.1882215 0.65239674 0.63047105 -0.5670824
000060 18 cf 23 3f 37 38 1e bf 76 50 ee 3e 50 44 a5 3e
       0.63987875 -0.6180453 0.46545762 0.3227868
000070 80 01 30 3f 3b bb df 3e 43 5e 23 3f 20 5e 9c be
       0.6875229 0.43697533 0.63815707 -0.30540562
000080 de 92 c5 3e f3 13 29 3f 75 cd 45 3f 4d 79 42 bf
       0.38588613 0.66046065 0.7726663 -0.7596634
000090 ac 20 ff 3e 37 99 22 bf 8f b3 c8 3e a9 a2 0b 3f
       0.49829614 -0.6351504 0.39199492 0.54545075
0000a0 1b 8a 5f bf 45 13 30 3f e8 de a1 bf 34 f1 bf 3e
       -0.8732011 0.687794 -1.264615 0.3748871
0000b0 b7 df 86 bf d6 0c 3c 3f e9 9d 06 3f 9f 0b 43 bf
       -1.0537022 0.73457086 0.525847 -0.7618961
0000c0 84 42 28 3f d4 9e 3d bf ff 58 44 3f 0c 77 26 3f
       0.65726495 -0.7407048 0.766983 0.650254
0000d0 76 c7 4b 3f 73 50 05 3f 27 e0 15 3f da 8f 45 be
       0.7960123 0.5207588 0.58545154 -0.19293156
0000e0 a1 67 07 3f 9b c8 24 3f 60 4b 58 3f b2 f5 4f bf
       0.528925 0.643686 0.84490013 -0.81234276
0000f0 b9 de bb 3e 59 37 86 be f4 d8 e3 3e 76 36 3c 3f
       0.3669336 -0.26214102 0.4450146 0.735206
000100 0c 01 2c bf 05 7a 21 3f 88 3f c2 bf 2a 98 de 3e
       -0.671891 0.6307681 -1.5175638 0.43475467
000110 26 ce 9a bf 9d 87 e2 3e f1 9f 12 3f 09 2c 60 bf
       -1.2094162 0.4424409 0.572753 -0.8756719
000120 c9 0f e7 bd 4f 4b 0b be 44 a9 02 3e 03 3d 11 be
       -0.11282308 -0.13602947 0.12759882 -0.1418343
000130 4e 3f d0 3d 1e e9 06 be e9 d9 0f be 1d ab 86 3d
       0.101683244 -0.13174865 -0.1404797 0.06575606
000140 57 73 dc bd 53 10 1b bd a3 a8 0e be 80 44 b9 bd
       -0.10764187 -0.037857365 -0.13931517 -0.090462685
000150 a8 2b b6 bd 84 e8 e4 3d 13 31 e2 3d 7d 53 1e be
       -0.088950455 0.11177161 0.110445164 -0.15461536
000160 44 ce 02 be d9 06 2b 3e b2 f7 b3 bc 5c 61 06 be
       -0.12773997 0.16701831 -0.021968696 -0.13123077
000170 80 f4 15 3e ef c3 d0 bd d5 d8 96 bd 3d 65 13 be
       0.1464405 -0.10193621 -0.07365576 -0.14394088
000180 e3 32 10 3f 47 b5 34 bf a8 88 1b 3f 6e 20 62 3e
       0.56327647 -0.7058911 0.60755396 0.22082683
000190 9e ce fb 3e 9f 06 54 3e 60 65 25 3e 95 06 83 be
       0.49181074 0.20705651 0.16151953 -0.2559096
0001a0 70 bb 8d 3e da 36 2b 3f 54 35 d8 3e 0a 9b 8a bf
       0.27682066 0.6688057 0.42228186 -1.0828564
0001b0 b8 33 0e 3f c8 14 68 bf 0f 4b 30 3f 95 80 1d 3f
       0.55547667 -0.9065671 0.6886453 0.61524326
0001c0 2f d0 b2 bf 71 6e 32 3f 88 4b ae bf 20 36 89 3e
       -1.3969783 0.6969977 -1.36168 0.26799107
0001d0 53 8d be bf 23 80 0d 3f 05 d0 00 3f 9f d4 22 bf
       -1.4886879 0.55273646 0.5031741 -0.63605684
0001e0 c1 90 ef 3e b4 c1 c7 3d 9d 26 83 3e a2 7c 8d 3e
       0.46790126 0.09753743 0.25615397 0.2763415
0001f0 ef 46 df 3e 04 4d 2a 3e 2f 34 83 3e 17 64 b6 be
       0.43608806 0.16630942 0.2562575 -0.35623237
000200 39 e7 97 3e ff cf a0 3e 77 ee 97 3e 80 e9 96 bf
       0.29668596 0.31408688 0.29674122 -1.1790009
000210 bc d6 93 3e 77 ca 10 c0 f1 15 08 3f 41 73 23 3e
       0.28874767 -2.2623575 0.5315848 0.15961935
000220 e2 8a cd bf 94 42 96 bc 3f 14 df be 2d 57 00 3f
       -1.6058009 -0.018342294 -0.43570134 0.5013302
000230 5d 7f 04 bf 6f 99 94 be 2b e7 db 3e 20 37 8b 3e
       -0.5175684 -0.2902331 0.42949805 0.27190495
000240 f7 2f a2 3e 22 8b e3 3e ae 9c 01 3f 33 61 4f 3e
       0.3167722 0.44442087 0.506297 0.20251922
000250 dd a6 56 3e df d5 85 3e 3b d2 77 3e 65 64 16 bf
       0.20962091 0.26139733 0.2420129 -0.5874694
000260 e6 53 9a 3e 20 be e8 3d a8 df 24 3f bd ed 94 bf
       0.30142134 0.113643885 0.6440377 -1.1635052
000270 5b c3 10 3f de f2 0e c0 42 51 01 3f 3a 0d 15 3e
       0.5654809 -2.2335734 0.50514615 0.14555827
000280 2c a4 e7 bf 36 a8 ba 3e bd 16 c7 be 26 c8 94 3e
       -1.8096976 0.3645646 -0.38884535 0.2905895
000290 f4 cd a4 be 38 31 29 be fe 8d 3d 3f 2d 81 9f 3d
       -0.3218838 -0.16522682 0.7404479 0.0778831
0002a0 7c 02 3d 3f d3 4f 02 bf 7e 4e 23 3f 11 9e d1 3e
       0.73831916 -0.5090305 0.63791645 0.40940908
0002b0 f9 d9 4b 3f 6f 8a ff 3e e8 72 e3 3e ca 9f 4c be
       0.79629475 0.49910304 0.44423604 -0.1998283
0002c0 e2 1f e0 3e bd 2f 3e 3f 81 5b 2f 3f 88 f2 52 bf
       0.43774325 0.7429159 0.68499 -0.82401323
0002d0 70 e5 0f 3f 3a 67 a2 be f4 81 2c 3f ec eb 39 3f
       0.5620947 -0.3171938 0.6738579 0.72625613
0002e0 ec 60 4f bf 29 99 3d 3f da 8f c1 bf b1 69 1f 3f
       -0.81007266 0.7406183 -1.5122025 0.6227065
0002f0 51 f2 a3 bf bc 2d 17 3f ce eb 10 3f 2b de 45 bf
       -1.2808324 0.5905416 0.5660981 -0.77292126
000300 d8 55 1c 3f d6 82 1c bf 3a 75 ed 3e d9 72 09 3f
       0.6106849 -0.6113714 0.463785 0.5369087
000310 aa d6 fd 3e 35 ed e9 3e 8a 60 0e 3f 63 d7 c7 be
       0.49577838 0.45688787 0.55616057 -0.39031515
000320 22 79 d3 3e a6 9e 45 3f fe 1e df 3e 1c 03 a2 bf
       0.41303355 0.77195203 0.43578333 -1.2657199
000330 59 aa f9 3e 4a 63 3f bf 53 30 00 3f 17 a5 b7 3e
       0.48762777 -0.7476088 0.50073737 0.3586814
000340 bf 36 81 bf 05 e0 3f 3f d6 eb ba bf de 8c 57 3e
       -1.0094832 0.749512 -1.4603221 0.2104983
000350 2a 0d b2 bf 92 37 01 3f 95 e1 e8 3e b6 86 85 bf
       -1.3910267 0.5047542 0.45484605 -1.0431736
000360 ce 15 1b 3f 64 28 0f bf 6f 13 08 3f ab f9 48 3e
       0.60580146 -0.55921006 0.53154653 0.19626491
000370 be 9e db 3e 34 e8 f5 3e 8a 32 00 3f f5 26 f0 be
       0.42894548 0.4802872 0.50077116 -0.46904722
000380 8b a8 14 3f 32 68 05 3f c1 f2 00 3f 71 51 9a bf
       0.58069676 0.52112114 0.50370413 -1.2056104
000390 47 ce c9 3e 4d 77 4e bf 06 53 0a 3f 9a a5 09 3f
       0.3941519 -0.8065079 0.54032934 0.5376831
0003a0 98 c1 af bf 47 25 45 3f a7 9b a5 bf 92 6e 6c 3e
       -1.3730955 0.77010006 -1.2938126 0.23089054
0003b0 70 98 bf bf c7 1d f7 3e d0 3f 28 3f 57 e9 31 bf
       -1.4968395 0.48264906 0.6572237 -0.69496673
0003c0 4a 52 fa 3d 3d cb 60 3f 36 a8 ad 3e 4c 28 79 be
       0.12222727 0.87810117 0.33917397 -0.24331778
0003d0 02 f5 89 be 38 c4 3d 3f bf 15 d7 3e 4f 73 cb be
       -0.2694474 0.7412753 0.42008778 -0.3973641
0003e0 41 7e 21 3f 0c 38 1f 3f 27 04 2d 3d d0 96 4b 3f
       0.63083273 0.62194896 0.042240288 0.79526997
0003f0 5a 99 05 3f 4c 0b ec be 4e aa b5 3e 32 3f 09 3f
       0.5218712 -0.4610237 0.35481495 0.53612053

2.bias f4 [24]
000000 4c 30 30 3f 30 71 f3 3e 72 c3 50 3f 20 75 4f bc
       0.68823695 0.47547293 0.81548226 -0.012662202
000010 07 e3 32 3f a9 0b 11 3e 3d c9 e8 3d e0 45 58 3f
       0.69877666 0.14164604 0.11366508 0.8448162
000020 be cc 26 3f 6e 39 30 3f e1 8a 90 3d 75 81 52 3f
       0.6515616 0.6883763 0.07057739 0.82228786
000030 97 4e 10 3f 69 6f 37 3f 38 e5 f1 3e 4c 01 16 3f
       0.5636992 0.71654373 0.47245193 0.5859573
000040 14 25 2f 3f 54 c4 ef 3e b7 45 cb 3e ad 82 36 3f
       0.6841595 0.46829474 0.39701626 0.71293145
000050 f4 61 44 bd 19 81 ec 3e e1 bc d0 bd 9b 4d 1e 3f
       -0.047944978 0.46192244 -0.10192276 0.61837167

4.weight f4 [2, 24]
000000 4c 97 6c 3f 66 5a 62 3f 6d 5e 6f 3f ac c2 a6 bc
       0.9241836 0.8841919 0.9350346 -0.020356499
000010 b5 fb 3c 3f 2d eb 08 bf 19 ee 12 bf a0 0d 63 3f
       0.73821574 -0.5348385 -0.5739456 0.88692665
000020 66 4d 6a 3f b6 14 35 3f 68 ab 95 bf 16 61 77 3f
       0.9152435 0.7073473 -1.1692934 0.96632516
000030 97 34 3b 3f 23 7c 47 3f 93 bf 3e 3f 9b 58 5a 3f
       0.7312712 0.7792379 0.7451107 0.8529145
000040 4d 4d 6a 3f b3 cb 00 3f f0 5d 38 3f ba 3b 82 3f
       0.915242 0.5031082 0.7201834 1.0174477
000050 3c 64 d9 3c f3 47 40 3f 38 4e 1c be 45 df 67 3f
       0.026537053 0.75109786 -0.15264213 0.9057506
000060 ec d3 ee 3e 91 2e 2f 3f 7b 86 e1 3e a9 f9 3f 3e
       0.4664606 0.6843043 0.44047913 0.18747582
000070 f7 1e 8d 3f 79 7b 94 3f de c3 85 3f a9 a2 01 3f
       1.1025075 1.1600181 1.0450399 0.50638825
000080 7e d3 62 3f 32 09 7a 3f f5 ff 25 bf cb f1 06 3f
       0.8860396 0.9767028 -0.64843684 0.52712697
000090 e5 eb 61 3f d5 eb 4d 3f 2e e9 48 3f 55 57 0a 3f
       0.8825057 0.80437976 0.78480804 0.5403951
0000a0 8b 74 26 3f 42 ae 97 3f fc 19 60 3f fa d1 2c 3f
       0.6502158 1.1850054 0.8753965 0.675079
0000b0 0a f1 cd bd cb a4 97 3f c5 fb bb bd 8d 37 36 3f
       -0.1005574 1.1847166 -0.091788806 0.71178514

4.bias f4 [2]
000000 12 e3 54 3f b3 bd 49 be
       0.8315898 -0.19701271
