AA203_HWs/hw4/reinforce_agent_policy_20250527_222638.pth (torch, 3539 bytes, 4 tensors)

0.weight f4 [24, 4]
-0.29013896 -0.23887645 0.21784393 0.25120994 0.16896059 0.05030612 -0.45937395 0.45313555
-0.25449586 0.07062963 -0.16408862 -0.18355371 0.35752228 -0.07728994 0.016426092 -0.028337166
0.26191074 0.2564176 -0.40189224 0.32077664 0.07393201 -0.40151957 0.1888601 0.06621925
-0.46532905 -0.40027946 0.53755796 0.36330223 0.3877159 0.06529217 -0.29746494 -0.05827255
-0.1058414 0.19511294 0.23178576 0.29613623 -0.2251734 -0.3154111 -0.1834782 -0.0014021447
0.1975503 -0.10708029 -0.10842658 -0.5705856 0.29959473 -0.42494044 -0.031666473 0.06226766
-0.15016858 -0.43935153 0.3582772 -0.042268988 -0.03401182 0.06698203 0.14981344 -0.17010532
0.07963004 0.024003193 0.16748874 -0.6815683 -0.25683898 0.002228095 -0.2976736 0.2810742
0.2091723 -0.5226563 0.4183817 0.6101895 -0.4216325 -0.15794818 0.26583603 0.56808573
0.424332 0.09389581 0.037869122 -0.35863382 0.16096033 -0.11065448 -0.5704807 -0.32525036
0.19680066 0.09811193 -0.17689417 0.061111502 0.064572975 -0.17225283 0.12311692 0.48284292
0.2537726 0.19903553 -0.2540753 -0.557186 0.1541802 0.17949378 0.021547407 -0.23213674
00000000: 188d 94be 079c 74be 7b12 5f3e 979e 803e
00000010: 0104 2d3e ca0d 4e3d 1033 ebbe 6201 e83e
00000020: 484d 82be 44a6 903d d906 28be 81f5 3bbe
00000030: 290d b73e 304a 9ebd 0390 863c 5823 e8bc
00000040: 2a19 863e 2b49 833e d2c4 cdbe d63c a43e
00000050: aa69 973d f993 cdbe 8b64 413e f59d 873d
00000060: 9c3f eebe 6ef1 ccbe 669d 093f c002 ba3e
00000070: b382 c63e e7b7 853d 534d 98be 33af 6ebd
00000080: 60c3 d8bd b0cb 473e 3f59 6d3e 2b9f 973e
00000090: db93 66be 907d a1be b6e1 3bbe 2bc8 b7ba
000000a0: a04a 4a3e e94c dbbd c10e debd e611 12bf
000000b0: 7b64 993e cb91 d9be b4b4 01bd 600c 7f3d
000000c0: cbc5 19be aff2 e0be 1c70 b73e 3f22 2dbd
000000d0: fa4f 0bbd e02d 893d b268 193e 1730 2ebe
000000e0: 1315 a33d 58a2 c43c 2b82 2b3e 437b 2ebf
000000f0: 6680 83be 3b05 123b ad68 98be f5e8 8f3e
00000100: 4331 563e cecc 05bf 2036 d63e 6135 1c3f
00000110: 37e0 d7be 2bbd 21be a91b 883e 116e 113f
00000120: 0b42 d93e 724c c03d a71c 1b3d da9e b7be
00000130: c9d2 243e d19e e2bd 060b 12bf 3787 a6be
00000140: 1d86 493e e8ee c83d bf23 35be 0e50 7a3d
00000150: d63e 843d 0c63 30be b924 fc3d 3037 f73e
00000160: 7bee 813e f8cf 4b3e 2816 82be bea3 0ebf
00000170: 6ae1 1d3e 38cd 373e 3084 b03c 41b5 6dbe

0.bias f4 [24]
0.45773944 -0.5235902 0.27703038 0.24643576 -0.30159175 0.2692296 0.4159989 -0.15290804
-0.326559 -0.2355564 0.47527212 -0.45128506 -0.2966255 -0.42874622 0.40053004 -0.38000175
-0.062186558 0.49908376 -0.3973036 0.40545902 -0.25116754 -0.000546191 -0.07123073 -0.08001729
00000000: d35c ea3e 020a 06bf edd6 8d3e a859 7c3e
00000010: 3c6a 9abe 76d8 893e cffd d43e ed93 1cbe
00000020: be32 a7be b235 71be de56 f33e d60e e7be
00000030: 4cdf 97be a084 dbbe 4612 cd3e 978f c2be
00000040: 55b7 7ebd e887 ff3e 616b cbbe 5398 cf3e
00000050: 0899 80be 422e 0fba 6be1 91bd 1be0 a3bd

2.weight f4 [2, 24]
-0.20438977 0.16001944 -0.045412395 -0.119433984 0.06772329 0.109179705 -0.14685467 -0.11840603
-0.16897203 0.12412877 0.22754407 -0.017962493 -0.09352634 -0.10843456 0.2599467 -0.0027430202
-0.17104428 -0.24643254 -0.1617043 0.24375217 0.0077355094 -0.20338678 0.27963606 -0.005525686
0.07087401 0.034268018 0.099062316 -0.008144424 -0.015634391 -0.072411925 -0.024014702 0.0041519403
-0.16918029 0.14470984 -0.039073315 -0.077007174 0.19987674 0.114397675 0.01618554 -0.0829541
-0.015562739 0.23927477 0.011844199 0.096329235 -0.08186134 0.100386575 -0.043276295 0.092547335
00000000: 8d4b 51be 23dc 233e 5902 3abd ce99 f4bd
00000010: 82b2 8a3d 9c99 df3d 1261 16be dc7e f2bd
00000020: 0107 2dbe 3937 fe3d 5001 693e 1426 93bc
00000030: bd8a bfbd f012 debd bc17 853e 3ec4 33bb
00000040: 3b26 2fbe d058 7cbe d095 25be 2b9a 793e
00000050: 287a fd3b a044 50be 752c 8f3e d010 b5bb
00000060: 6526 913d 9f5c 0c3d 2fe1 ca3d 3170 05bc
00000070: b213 80bc b44c 94bd 7bba c4bc 000d 883b
00000080: 993d 2dbe d12e 143e 570b 20bd f0b5 9dbd
00000090: 7dac 4c3e 5449 ea3d 8a97 843c d7e3 a9bd
000000a0: dcfa 7ebc 7204 753e 2c0e 423c 4348 c53d
000000b0: eba6 a7bd 7a97 cd3d 7c42 31bd 7589 bd3d

2.bias f4 [2]
-0.050337296 -0.16080518
00000000: 7b2e 4ebd 1daa 24be
