AA203_HWs/hw4/reinforce_agent_policy_20250527_224130.pth (torch, 3539 bytes, 4 tensors)

0.weight f4 [24, 4]
000000 0c 38 9a 3e 76 ec be be ac ff 7d be 86 4e a6 be
       0.30120885 -0.3728978 -0.24804562 -0.32481784
000010 ec 32 5a 3e 65 29 3e be 3b c9 da ba 25 ce 90 3e
       0.21308488 -0.18570478 -0.0016692051 0.28282276
000020 65 f6 dd 3e bc 6f 8b 3e 8c 74 c4 be 90 9e b1 bd
       0.43352047 0.27233684 -0.38370168 -0.086728215
000030 59 cc d6 be 1a 17 6a bd 79 81 e3 3e d1 6b b8 be
       -0.4195278 -0.057150938 0.44434717 -0.36019757
000040 e4 db 99 be bf 0c bc 3d 9f 7e 86 3d 47 34 b2 bd
       -0.30050576 0.091821186 0.0656712 -0.08701377
000050 95 85 7d 3a 05 89 a5 bd c3 6e 99 be 00 d8 63 be
       0.00096710894 -0.08082775 -0.29967317 -0.22250366
000060 77 72 03 bf 62 8c 7b 3e 02 88 b8 be 73 d9 77 be
       -0.51346534 0.2456527 -0.36041266 -0.24204044
000070 fc d3 53 3e 74 8e 31 3e ce 0f 11 3f 11 c4 6c 3e
       0.20686334 0.17339498 0.5666474 0.23121668
000080 cc 15 bb 3e dc 31 2c 3d c1 27 a0 3e 32 80 ae 3e
       0.36540067 0.042039737 0.3128033 0.3408218
000090 8c 55 ad 3e 19 74 78 3c 7b 18 43 be ec 6d 3a 3e
       0.3385433 0.015164399 -0.19052307 0.18205994
0000a0 e5 0b 41 be 21 49 0a 3e 3a eb 89 bd 89 df a6 3e
       -0.18852194 0.13504459 -0.06734319 0.3259242
0000b0 f0 82 d5 3e 4b b1 82 3e 3d ed 5b 3d 24 a1 26 3d
       0.4170146 0.2552589 0.053693045 0.04068102
0000c0 7d 3b 00 3f d0 ee 10 3f e5 cc 50 3e 56 8c c1 be
       0.5009077 0.566144 0.20390661 -0.3780238
0000d0 6a 67 6f 3e b6 41 65 3e ad 39 0d bf 7e 37 c2 3d
       0.23379293 0.22388348 -0.5516613 0.094832405
0000e0 ca ed af be 29 d6 9b 3c 61 f8 8f be 4a 5b e6 3d
       -0.34361106 0.019023018 -0.28119186 0.11247881
0000f0 32 aa 41 be b5 88 0d 3f 32 02 e4 3e 13 1d ab be
       -0.1891258 0.55286723 0.44532925 -0.3342062
000100 db 28 bf 3e 57 90 10 3f 02 27 f5 be 35 99 e7 be
       0.37335858 0.56470245 -0.47881323 -0.45234075
000110 21 9b dc 3e f2 30 9e 3e 78 0b 91 be b1 34 5b 3d
       0.43087104 0.30896717 -0.28329062 0.053517047
000120 c9 5c da 3c e5 10 06 3f a1 87 3d 3c 27 fd 13 bf
       0.026655572 0.5236953 0.011567981 -0.57808155
000130 5a e6 76 bd 2b e9 9f 3e 54 53 cc 3e b2 f9 18 bf
       -0.060278274 0.3123258 0.39907324 -0.59756005
000140 38 d4 ac be cc a7 34 3e 1c 82 b9 be d4 cd 12 bf
       -0.3375566 0.17642134 -0.36232078 -0.5734532
000150 da f5 af be 8c 34 40 be 95 df 03 be 00 cc a0 3e
       -0.34367257 -0.18770045 -0.12878259 0.3140564
000160 82 3d 96 be 4a 7b 95 be bf f2 ae be fb 1f ff bd
       -0.29343802 -0.29195625 -0.34169576 -0.12457272
000170 63 7a ba be fb b7 43 3e d6 58 1c be 8f d0 15 bf
       -0.364215 0.19113152 -0.15268263 -0.5852136

0.bias f4 [24]
000000 c2 63 d3 be 3b 0d d4 3e 97 40 b6 3d 46 f8 aa 3e
       -0.41287047 0.41416344 0.08899038 0.33392543
000010 60 06 44 3d ae 41 cb 3d 1b f1 2e 3e 80 87 93 3e
       0.047857642 0.09924637 0.17084162 0.28814316
000020 85 87 0f 3f 6e f3 7d be 02 81 8e 3e 84 ee d6 3e
       0.5606616 -0.24799892 0.278328 0.41978848
000030 51 ad b1 bd 29 e0 a6 3e 24 75 20 3f a3 6e bc be
       -0.086756356 0.32592896 0.6267874 -0.3680316
000040 44 2e 8d 3e 4a d7 be be e6 29 cd 3c 8c 33 c8 bb
       0.2757436 -0.37273628 0.025044393 -0.0061096605
000050 87 13 50 3e ab 54 72 3e cf 09 1d bd 21 f7 c8 3e
       0.20319949 0.23665111 -0.038339432 0.39251044

2.weight f4 [2, 24]
000000 ca 2b 6b bd 8e cc 83 3e 88 79 fb bc a8 da f7 3d
       -0.057414807 0.25742 -0.030697599 0.12102252
000010 67 b3 f4 bd 27 94 03 be ef 51 ec bd 6d 97 23 3e
       -0.11948281 -0.12849484 -0.11539065 0.15975733
000020 59 d1 08 3e 07 8b c8 3d 57 56 a4 3e 76 1e 33 3e
       0.1336111 0.09792142 0.32097122 0.17492089
000030 99 3f be bd 32 03 bd bd 49 a3 42 3e 7e 86 65 be
       -0.09289474 -0.09229125 0.19007601 -0.22414586
000040 48 df 91 bd 70 58 56 3d 0a 08 08 be a3 75 8f bd
       -0.07122666 0.052330434 -0.13284317 -0.07004859
000050 16 8a 41 be df d5 99 3e 76 89 30 bd 89 96 7c bd
       -0.18900332 0.30045983 -0.043099843 -0.061667
000060 15 f4 00 3d fd 49 7d be d6 51 bb bd 65 35 c1 3d
       0.031482775 -0.24735256 -0.09146468 0.09434012
000070 1c a5 07 3e 3e 8d af 3d 16 8c 4e bd 36 65 9b bd
       0.13246578 0.08571862 -0.050426565 -0.07587664
000080 45 21 35 be e3 2b 2b 3e 7a 49 c4 bd 0f 0e 04 be
       -0.17688473 0.1671596 -0.09584327 -0.12895988
000090 a6 63 83 3d ca f8 9c 3d 8d f7 a1 3d 67 3e dd 3d
       0.06415491 0.0766464 0.07908545 0.10802918
0000a0 c2 34 d4 3d df 1d 13 be 86 fc 7c 3e 35 92 61 3e
       0.10361625 -0.14366864 0.24705705 0.2202843
0000b0 8c 60 55 3d 5e 8d c4 b8 71 1e f2 3c 8b 7d c5 3d
       0.052094027 -9.37234e-05 0.029555531 0.09643086

2.bias f4 [2]
000000 a5 9b 34 3e 10 36 b8 3d
       0.17637499 0.089946866
