AA203_HWs/hw4/reinforce_agent_policy_20250527_223546.pth (torch, 3539 bytes, 4 tensors)

0.weight f4 [24, 4]
000000 83 f1 0f 3e 8b e1 e8 3e 44 3b b6 be ca e4 5b be
       0.14056973 0.45484576 -0.3559209 -0.21473995
000010 71 f9 5c 3d 04 73 ad be 0b 1d 98 3e b9 2a f4 3d
       0.053948823 -0.33876812 0.29709658 0.11922211
000020 21 89 88 3e d7 d5 94 bd 53 c4 a9 be 61 3f 34 bf
       0.2666712 -0.07267349 -0.33157596 -0.7040921
000030 b3 95 df bd a7 cb 4c 3e 01 e8 4b 3f 0a ce 00 3f
       -0.10917225 0.19999562 0.79650885 0.5031439
000040 d1 58 dd bc 0d bf 8a 3e 7e 43 b4 be ab 49 f6 be
       -0.02701989 0.27098885 -0.35207742 -0.4810308
000050 38 07 43 3e 9e 7b 36 3e 59 8a c6 3e 61 4f 00 be
       0.19045722 0.17820594 0.38777426 -0.1253028
000060 ea 24 a1 3e c5 fb 3a be a5 76 0a bf 7e 32 89 3e
       0.31473476 -0.18260105 -0.5408729 0.26796335
000070 8a 21 a9 be 56 0c e9 3c 07 d0 33 bf 57 05 19 bf
       -0.330334 0.028448265 -0.702393 -0.5977377
000080 f9 ce 5a be 53 b2 bd 3d 42 c9 e7 be b6 57 31 bf
       -0.21368016 0.09262528 -0.45270735 -0.6927446
000090 d5 2f 93 be c3 b5 20 3e b2 d1 1f be 13 00 0f 3f
       -0.2874743 0.15694337 -0.15607336 0.5585949
0000a0 22 14 85 bd 10 26 71 be f2 64 9d be 7d 5d 5b be
       -0.06497981 -0.23549676 -0.30741078 -0.21422382
0000b0 f8 8c ab 3e 36 ea ea bd 8e 2d c0 be 4b fa ce 3d
       0.33505988 -0.114704534 -0.37534755 0.10106333
0000c0 77 57 cb 3d f1 fd fa be 21 00 58 be 75 a4 be be
       0.09928792 -0.49021867 -0.21093799 -0.37234846
0000d0 dd f4 c7 3e 8a a4 8c be 8f 32 bf 3d e3 1f 11 bf
       0.39054003 -0.27469283 0.09335815 -0.5668928
0000e0 1c 4d b4 3e 6f aa 33 3e 0f 82 1b be 32 d5 2b be
       0.3521508 0.17545484 -0.15186332 -0.16780546
0000f0 be da a7 3e e5 49 fc be 24 33 a5 3e 58 29 c7 3d
       0.32784075 -0.49275127 0.3226558 0.097246826
000100 19 10 d8 3e 36 e3 5c 3e 65 a0 36 bf 1d 2b a9 be
       0.42199782 0.21571049 -0.7133849 -0.33040705
000110 e0 c6 fb 3d a9 d3 b0 be 66 4b 94 be 26 7c bb be
       0.12293792 -0.34536484 -0.28963774 -0.36618155
000120 18 ff 56 3e 57 6b 3b 3e 74 6b 85 be 0d 2d 9d 3e
       0.20995748 0.18302666 -0.26058543 0.30698434
000130 33 5a a7 be c9 8b 92 be 43 07 1f 3f d4 0f b1 3e
       -0.32686004 -0.28622273 0.62120456 0.34582388
000140 7f f1 f2 be ae ca b7 be c5 a6 e9 bd bc 5a 09 3f
       -0.47449872 -0.3589682 -0.11408762 0.53654075
000150 85 c1 4c 3e cf ad 8c be c7 4e cd 3e c1 65 0d 3f
       0.19995697 -0.27476355 0.40099165 0.5523339
000160 4a d3 20 3e 89 94 b7 be 5f 1a 54 be a6 1e 84 be
       0.157056 -0.3585551 -0.20713185 -0.25804633
000170 b2 74 c4 3d 47 ee 8b be 5a 28 92 3e 8f 4e e8 3e
       0.0959257 -0.2733023 0.2854641 0.45372435

0.bias f4 [24]
000000 5a 3b 24 3e 25 ca cc 3c 3a b4 83 3e d8 66 62 3e
       0.16038266 0.024998734 0.2572344 0.22109544
000010 bc e4 9c 3e df 00 cc be 25 b5 2a be 22 59 76 3e
       0.3064326 -0.39844415 -0.16670664 0.24057439
000020 dd 7d 34 3e af da 9d be 28 8f 1e be 79 fe ac be
       0.17626138 -0.30830905 -0.15484297 -0.33787897
000030 16 64 96 be ff 02 1b 3e 50 9f f9 be fc 01 a1 bd
       -0.29373235 0.15137862 -0.48754358 -0.078617066
000040 54 76 a8 3e 8d c1 15 be 62 bb 3f be 21 91 42 3e
       0.32902777 -0.14624615 -0.18723825 0.19000675
000050 99 09 49 3e 9a 81 7e 3e 7c e9 f2 be e1 32 c6 3e
       0.19632567 0.24854127 -0.4744376 0.38710693

2.weight f4 [2, 24]
000000 7e ce 33 bd e7 26 a6 3a 37 f1 8d 3e 66 1c c7 be
       -0.0438981 0.0012676389 0.27723095 -0.38888854
000010 10 82 60 bd 54 c6 b7 3d 0c eb b2 3d f2 34 ae 3e
       -0.054811537 0.08973375 0.08736238 0.3402477
000020 ce ad 56 3e bd b5 70 be 98 c1 4d bd 6e 1d 54 3d
       0.20964739 -0.23506828 -0.050233454 0.05178588
000030 40 d9 2d 3e 00 59 cc 3e a4 61 0f 3e f0 fe 7e be
       0.16977406 0.39911652 0.1400209 -0.24901938
000040 6b 41 30 3e 9f dc 92 bb c2 26 c2 3d 0b 68 db be
       0.17212455 -0.0044818665 0.09480049 -0.42852816
000050 f5 54 b2 be 8f bc b4 be b3 87 c7 3d 9f 04 93 bc
       -0.34830442 -0.3530011 0.097426794 -0.01794654
000060 00 dd 84 be 35 8c e9 3a 5f 50 93 be 06 47 2f 3e
       -0.2594986 0.0017818274 -0.28772256 0.17116937
000070 01 ca a3 be 6a 93 b9 3d 33 1b 7f bd ca 06 0b be
       -0.31990054 0.0906132 -0.0622818 -0.13576809
000080 fb 44 b9 be c6 57 d4 bc ff d9 47 bd 99 5f f9 bc
       -0.3618544 -0.02592076 -0.04879188 -0.030441092
000090 5e e1 31 be 8a 93 ae bd b0 98 d0 3d cf 56 bf 3c
       -0.17371127 -0.085242346 0.10185373 0.023356823
0000a0 60 b5 b3 bd ae 6d 06 bb 39 0d d3 3d f3 04 ac 3e
       -0.08774829 -0.0020512152 0.103052564 0.33597526
0000b0 d9 da 98 3c f7 6c 48 3e 77 1e ac 3d c3 41 9f 3e
       0.018659042 0.19572817 0.08404248 0.3110486

2.bias f4 [2]
000000 47 16 36 be 17 57 2c 3e
       -0.17781936 0.16830097
